RL-agent/best_model/20-10-2022_15-20-33_score-46_model.pth (torch, 19871 bytes, 4 tensors)

linear1.weight f4 [256, 14]
-0.24263525 0.08445624 -0.28600195 0.21953678 -0.2169297 0.24539688 -0.014052241 0.043608733
-0.06480752 -0.15211643 0.125655 0.3401283 0.19687483 0.22502026 0.549028 -0.071775
0.083835654 0.032289475 -0.16212413 -0.18749881 0.14483224 -0.26406914 -0.18908712 0.13034445
0.40884343 -0.078774065 -0.114992306 0.08026953 -0.19272608 0.14722036 -0.2217277 0.13505143
0.043815136 -0.13302742 -0.0040817442 0.0036489158 -0.33789614 -0.051527757 0.29730937 0.14692907
0.23922856 -0.015054311 -0.31547865 0.44911653 -0.34342217 -0.2633067 -0.034405798 0.25153574
0.39872524 0.48824358 -0.31996128 0.030417677 0.29695404 0.17367935 -0.4697974 -0.4568776
0.11805087 0.08440792 0.04907638 0.16663751 -0.07589203 0.03272307 0.3601986 0.388706
0.3042043 -0.09319429 -0.055550043 0.04891236 -0.3022305 -0.629099 -0.37247124 0.10809955
0.17726408 -0.106745064 -0.044775695 0.18394595 -0.042765778 -0.14367166 0.019387022 -0.29163438
0.2638466 0.0023391047 0.05532714 0.14259847 -0.012828151 -0.23201983 0.002775298 0.24564806
-0.025213957 -0.121879846 -0.04108254 -0.07893207 -0.15745372 -0.22133471 0.1557973 0.3971821
0.14356297 0.3503217 -0.0098067215 0.016152093 0.036473922 0.0023017526 -0.09403932 -0.15860078
-0.2692254 0.23459405 0.45424202 -0.31642392 0.33040735 -0.49727836 0.030338282 0.013841496
-0.08287253 -0.09645867 -0.10658429 -0.21449164 -0.21885972 0.04181412 0.09948749 -0.1340696
0.16021337 0.057931207 0.44967943 0.40264937 0.4372021 0.45092347 0.16263105 -0.08932291
0.070806965 0.24192128 0.051682115 0.13204917 0.07998251 0.12851581 -0.3391998 -0.16162801
-0.13206477 -0.0052849445 0.3814299 0.26062304 -0.25763047 -0.022346137 -0.015667344 0.21732882
0.13417009 -0.051815987 -0.18883401 0.44790274 0.05909295 -0.22330725 -0.46942547 0.21732666
-0.3233836 0.31870055 0.20268506 0.013311796 -0.42839754 -0.01253444 0.09386018 0.14293936
0.34193707 -0.47419342 -0.2557108 0.0744948 0.39310414 -0.40029532 0.22184424 -0.1457565
0.120648496 0.07471276 -0.055388212 -0.13305388 0.19108737 0.22001961 -0.030380001 -0.10380166
-0.05410815 -0.41144982 0.21087798 0.42884952 0.15048358 0.4562048 -0.16203395 -0.16259664
-0.13435617 0.0872218 -0.045430347 -0.11652644 -0.21944533 -0.12513766 -0.47403693 -0.13463102
-0.08746479 0.15778324 0.16061355 -0.023667585 -0.13119407 -0.03667139 -0.020847201 0.22103998
-0.034341305 0.11202186 0.12669182 -0.044713743 -0.12874216 0.036676165 0.41533098 0.43243474
0.25729707 0.14058086 -0.23723456 -0.19885528 -0.12471408 -0.07699376 0.012727022 0.18632764
0.26319817 -0.12676924 -0.23145376 0.21396294 -0.17941685 -0.19043729 -0.16676691 -0.17466865
-0.20529455 -0.08620037 0.11144697 -0.17038195 0.0055565536 -0.2088874 -0.0773845 0.30293196
0.24781431 -0.13180253 -0.05761618 0.14145827 -0.041023325 -0.048369788 -0.26732418 0.057648364
-0.00029216908 0.104655296 0.038535327 -0.23357263 -0.33356053 -0.22020032 0.4401002 0.0064264694
0.29103205 0.41343963 -0.36887372 0.07075847 0.47625864 0.4727843 0.0200337 -0.19624987
00000000: 6075 78be 65f7 ac3d d96e 92be 40ce 603e
00000010: d222 5ebe 5249 7b3e 5f3b 66bc 129f 323d
00000020: ceb9 84bd 69c4 1bbe b4ab 003e 4c25 ae3e
00000030: 8e99 493e b66b 663e 198d 0c3f c5fe 92bd
00000040: 07b2 ab3d f841 043d de03 26be b0ff 3fbe
00000050: e74e 143e 1234 87be 0ea0 41be 0479 053e
00000060: ed53 d13e 4c54 a1bd 1681 ebbd 5a64 a43d
00000070: fc59 45be efc0 163e 960c 63be ec4a 0a3e
00000080: 8077 333d 5738 08be 27c0 85bb a622 6f3b
00000090: b900 adbe c50e 53bd ef38 983e 9374 163e
000000a0: 55f8 743e 5ba6 76bc 6b86 a1be 9af2 e53e
000000b0: 08d5 afbe 23d0 86be 18ed 0cbd 4bc9 803e
000000c0: b725 cc3e 10fb f93e f7d1 a3be 7e2e f93c
000000d0: 5c0a 983e 00d9 313e 4989 f0be dceb e9be
000000e0: a8c4 f13d 0fde ac3d 5004 493d 06a3 2a3e
000000f0: 486d 9bbd a008 063d f36b b83e 7904 c73e
00000100: aac0 9b3e a6dc bebd 7188 63bd 5458 483d
00000110: f5bd 9abe a20c 21bf 8db4 bebe 4c63 dd3d
00000120: b784 353e 289d dabd b866 37bd 545c 3c3e
00000130: 2b2b 2fbd aa1e 13be 88d1 9e3c 1a51 95be
00000140: e716 873e aa4b 193b b69e 623d 5505 123e
00000150: 2a2d 52bc 9b96 6dbe c6e1 353b 2a8b 7b3e
00000160: 808d cebc 249c f9bd 2a46 28bd 23a7 a1bd
00000170: 8c3b 21be 91a5 62be 5489 1f3e 745b cb3e
00000180: 2c02 133e 5e5d b33e 5fac 20bc 6551 843c
00000190: ae65 153d 00d9 163b b097 c0bd 3e68 22be
000001a0: e9d7 89be 6c39 703e 6992 e83e 5102 a2be
000001b0: 272b a93e 459b febe fd87 f83c 71c7 623c
000001c0: 13b9 a9bd 208c c5bd dd48 dabd b2a3 5bbe
000001d0: c31c 60be 4845 2b3d 19c0 cb3d 8b49 09be
000001e0: f90e 243e 4649 6d3d 623c e63e 0f28 ce3e
000001f0: f4d8 df3e 71df e63e c188 263e eeee b6bd
00000200: 3e03 913d 36ba 773e a0b0 533d e637 073e
00000210: dfcd a33d a699 033e 99ab adbe d081 25be
00000220: fd3b 07be 542d adbb c84a c33e 6270 853e
00000230: 24e8 83be 3f0f b7bc cd58 80bc 728b 5e3e
00000240: e263 093e 003d 54bd b45d 41be 8253 e53e
00000250: 730b 723d a8aa 64be 8958 f0be e18a 5e3e
00000260: 8992 a5be b82c a33e ac8c 4f3e b819 5a3c
00000270: ec56 dbbe 405d 4dbc c439 c03d b25e 123e
00000280: 6012 af3e 7bc9 f2be 87ec 82be bb90 983d
00000290: f244 c93e 82f3 ccbe 232b 633e 3141 15be
000002a0: 8f16 f73d 0103 993d c0de 62bd 473f 08be
000002b0: 68ac 433e d24c 613e 7bdf f8bc f795 d4bd
000002c0: 82a0 5dbd 8da9 d2be 66f0 573e 2a92 db3e
000002d0: 5e18 1a3e ad93 e93e 3aec 25be bc7f 26be
000002e0: aa94 09be 58a1 b23d 2c15 3abd 6aa5 eebd
000002f0: 47b6 60be 1624 00be f8b4 f2be b7dc 09be
00000300: bd20 b3bd ee91 213e e177 243e 86e2 c1bc
00000310: bd57 06be bd34 16bd c0c7 aabc 4e58 623e
00000320: 78a9 0cbd b86b e53d 80bb 013e c225 37bd
00000330: fcd4 03be bf39 163d 43a6 d43e 1668 dd3e
00000340: 71bc 833e 6ef4 0f3e 9eed 72be b8a0 4bbe
00000350: 186a ffbd e8ae 9dbd 0085 503c accc 3e3e
00000360: e9c1 863e cccf 01be 3702 6dbe 1a19 5b3e
00000370: 0db9 37be fe01 43be f2c4 2abe 57dc 32be
00000380: bc38 52be d289 b0bd 4f3e e43d 9b78 2ebe
00000390: c013 b63b 94e6 55be c47b 9ebd e619 9b3e
000003a0: 09c3 7d3e 3ef7 06be f2fe 6bbd 70da 103e
000003b0: 1308 28bd 661f 46bd b7de 88be b120 6c3d
000003c0: 452e 99b9 8455 d63d 38d7 1d3d aa2d 6fbe
000003d0: 72c8 aabe 317c 61be d054 e13e 2295 d23b
000003e0: 2702 953e 5cae d33e 04dd bcbe d1e9 903d
000003f0: 2cd8 f33e c910 f23e b71d a43c baf5 48be

linear1.bias f4 [256]
-0.0037763708 -0.19566104 0.009222356 0.062273294 0.54044515 0.26271835 0.079178594 -0.045999177
-0.36540172 -0.13977152 -0.13544756 0.057516996 -0.12396893 -0.031640194 -0.15943383 -0.19289342
0.4556138 -0.08183444 -0.19332641 0.012033941 -0.00857813 -0.07141171 -0.12080743 -0.40746197
-0.15543689 0.032237407 0.16826014 -0.15064797 -0.078253314 -0.114233196 0.19400494 -0.117022686
0.08143744 0.06702334 -0.23192708 -0.1442489 0.124575175 0.1895674 -0.29540774 -0.03137119
0.08592878 0.09896579 -0.029525997 -0.11163793 -0.23402771 0.027617421 0.15017521 -0.1993189
-0.1456272 0.11722497 -0.037769787 0.061881177 0.092648976 -0.15254813 -0.14561136 -0.2514354
0.060283907 -0.18878117 -0.2266671 -0.12846652 0.0033012715 -0.0037219045 -0.23022631 -0.23481914
0.11661646 -0.0941076 -0.14588004 -0.08601965 0.3957364 -0.18237333 0.14365995 -0.073412046
-0.08442148 -0.0121434685 -0.10396544 -0.14362541 -0.10736893 -0.03502066 -0.015942827 -0.24378458
0.28577235 -0.1490562 -0.095848896 0.063427076 0.38972968 -0.35878673 -0.24256253 -0.20136228
0.14202864 0.22801645 -0.14490612 -0.060998537 0.03847052 -0.12045391 -0.17205584 -0.022284675
-0.113991156 0.13208379 -0.16378683 -0.122777104 0.36585352 -0.08625482 -0.08202156 -0.1553439
-0.07731475 0.010152727 -0.08782833 -0.037158698 -0.08677555 -0.330919 0.038146976 -0.14187789
-0.18955834 -0.053592756 0.01967104 -0.023074795 -0.16955242 -0.28052837 -0.107092224 -0.19346717
-0.13414235 -0.27727368 -0.039324485 -0.28110027 -0.0835873 0.11069679 0.041153137 -0.16473007
0.18749928 -0.28765944 -0.14643799 -0.33378485 -0.020198803 -0.1328704 -0.23463118 -0.30597714
-0.36633128 -0.055748235 0.04129825 -0.1910466 -0.034408025 -0.47095433 -0.05541926 -0.30153134
-0.30507073 0.117794745 0.35363704 0.029513082 -0.21280779 -0.21508737 -0.0532137 -0.042191856
-0.04533196 -0.16098908 -0.12526399 0.122278936 -0.11546226 -0.103501506 -0.012010604 -0.0068907095
-0.2647796 -0.07483535 0.46119416 0.05961092 0.23974682 -0.09369343 -0.23993663 -0.2618418
0.043296937 -0.053748433 0.17654179 -0.15575168 -0.1533738 0.45989734 0.08260527 -0.07972976
0.035709456 -0.042635817 -0.27181304 0.23118721 0.13690655 -0.11002097 0.13401403 0.063779205
-0.26230147 0.09378675 -0.090195075 -0.12616795 -0.034405347 -0.2854241 -0.04928335 0.05144932
-0.1761392 -0.2563887 -0.37513366 -0.17322533 0.22644617 -0.18391535 -0.15347295 -0.20711322
-0.17431429 0.64108276 0.14205939 -0.059006393 0.2961617 -0.03307009 0.03771469 -0.28108883
-0.04452708 -0.20251806 -0.013031831 -0.012372526 -0.09601297 0.00057734 0.34461862 0.19007728
-0.20455983 -0.04997343 0.09140769 0.04267494 -0.0006016864 -0.03348138 0.027129304 0.06424804
0.41643992 0.2702276 -0.036784157 -0.33216742 -0.09984567 -0.11377777 -0.13099799 -0.19415207
-0.06533363 0.36007062 -0.048475906 -0.17632411 0.088062435 -0.20429754 -0.06598453 -0.029190246
0.05442911 -0.20791805 0.035927337 -0.13866809 0.048512675 -0.120994374 -0.039490424 -0.14051399
0.13590261 0.06420073 -0.26082924 -0.30010298 -0.19189431 0.24328664 -0.002296966 -0.03628999
00000000: fd7c 77bb 5e5b 48be 5d19 173c 4812 7f3d
00000010: 9d5a 0a3f 0583 863e 6328 a23d a269 3cbd
00000020: ef15 bbbe 4420 0fbe c4b2 0abe f196 6b3d
00000030: 6ce3 fdbd 2699 01bd 9f42 23be da85 45be
00000040: 3646 e93e d198 a7bd 5cf7 45be 022a 453c
00000050: 498b 0cbc 4d40 92bd e369 f7bd db9e d0be
00000060: d92a 1fbe 5f0b 043d 634c 2c3e 7643 1abe
00000070: 4643 a0bd 18f3 e9bd 3ba9 463e 97a9 efbd
00000080: acc8 a63d 8843 893d 4b7e 6dbe fcb5 13be
00000090: 4521 ff3d f51d 423e af3f 97be 147f 00bd
000000a0: 6efb af3d 93ae ca3d 81e0 f1bc 6da2 e4bd
000000b0: f6a4 6fbe ee3d e23c 88c7 193e 411a 4cbe
000000c0: 4c1f 15be a513 f03d 7eb4 1abd 1e77 7d3d
000000d0: bfbe bd3d 9435 1cbe 251b 15be 24bc 80be
000000e0: 42ec 763d da4f 41be 6c1b 68be ba8c 03be
000000f0: 255a 583b 32eb 73bb 72c0 6bbe 6e74 70be
00000100: 9cd4 ee3d 7cbb c0bd 9461 15be 122b b0bd
00000110: f69d ca3e 13c0 3abe 981b 133e 0e59 96bd
00000120: 2be5 acbd 66f5 46bc d5eb d4bd 8a12 13be
00000130: 3ee4 dbbd d371 0fbd 889a 82bc aaa2 79be
00000140: c150 923e 30a2 18be 6d4c c4bd 0ee6 813d
00000150: a68a c73e e5b2 b7be 5062 78be ea31 4ebe
00000160: f56f 113e 257d 693e 4562 14be 9ad9 79bd
00000170: 4493 1d3d 8ab0 f6bd 682f 30be 5a8e b6bc
00000180: 3274 e9bd f940 073e bcb7 27be 9072 fbbd
00000190: 2751 bb3e 5ea6 b0bd ebfa a7bd 7912 1fbe
000001a0: 3257 9ebd a057 263c 57df b3bd b833 18bd
000001b0: 61b7 b1bd 376e a9be 0140 1c3d 7048 11be
000001c0: 951b 42be 1484 5bbd 2925 a13c 5a07 bdbc
000001d0: 269f 2dbe 6aa1 8fbe 2b53 dbbd 421c 46be
000001e0: 9d5c 09be d1f6 8dbe b612 21bd 60ec 8fbe
000001f0: d12f abbd 00b5 e23d 3190 283d 00af 28be
00000200: d0ff 3f3e 1948 93be d7f3 15be d9e5 aabe
00000210: f677 a5bc 2e0f 08be 2843 70be 09a9 9cbe
00000220: c68f bbbe 4358 64bd 5b28 293d b8a1 43be
00000230: 6eef 0cbd ed20 f1be 4eff 62bd 5162 9abe
00000240: 3b32 9cbe 5f3e f13d ea0f b53e 6bc5 f13c
00000250: 49ea 59be dd3f 5cbe 9cf6 59bd 5ed1 2cbd
00000260: 01ae 39bd 52da 24be 3445 00be 616d fa3d
00000270: 7a77 ecbd 99f8 d3bd 20c8 44bc 76cb e1bb
00000280: 3191 87be 4743 99bd a421 ec3e 942a 743d
00000290: 3180 753e 57e2 bfbd f3b1 75be 2110 86be
000002a0: 2158 313d 5127 5cbd 5fc7 343e 5e7d 1fbe
000002b0: 050e 1dbe aa77 eb3e f42c a93d 5b49 a3bd
000002c0: 1444 123d e5a2 2ebd 142b 8bbe 57bc 6c3e
000002d0: 3b31 0c3e ad52 e1bd f93a 093e ac9e 823d
000002e0: 614c 86be 4513 c03d 32b8 b8bd 2c32 01be
000002f0: 9fec 0cbd 1c23 92be 57dd 49bd 86bc 523d
00000300: d65d 34be 6145 83be 8511 c0be fb61 31be
00000310: 81e1 673e 4e54 3cbe 0328 1dbe 7d15 54be
00000320: 727f 32be 001e 243f 0478 113e b0b0 71bd
00000330: 82a2 973e 8174 07bd b87a 1a3d e0ea 8fbe
00000340: 0762 36bd e560 4fbe 7683 55bc 23b6 4abc
00000350: 73a2 c4bd a258 173a da71 b03e 9ea3 423e
00000360: 2278 51be f0b0 4cbd f433 bb3d ebcb 2e3d
00000370: 7eba 1dba c623 09bd 463e de3c 7a94 833d
00000380: 9d37 d53e 465b 8a3e fcaa 16bd d911 aabe
00000390: e37b ccbd 5204 e9bd 5624 06be cdcf 46be
000003a0: a3cd 85bd 2d5b b83e ac8e 46bd 4f8e 34be
000003b0: 145a b43d 6033 51be e622 87bd 6220 efbc
000003c0: 0ff1 5e3d 78e8 54be 8b28 133d 02ff 0dbe
000003d0: 3ab5 463d e6cb f7bd b6c0 21bd e6e2 0fbe
000003e0: 0e2a 0b3e ac7b 833d 698b 85be 19a7 99be
000003f0: f17f 44be 2220 793e b288 16bb d0a4 14bd

linear2.weight f4 [3, 256]
-0.0149394525 -0.24628286 -0.0014384963 0.5907081 0.3779288 0.049772754 -0.022735123 0.23082507
-0.13873336 -0.13926552 -0.13145372 -0.44090417 -0.10041188 -0.0027103545 -0.051331148 -0.013381742
0.16459237 -0.4574017 0.21669231 -0.0595004 -0.28972006 -0.05799783 -0.4275484 -0.24571492
-0.058066055 0.2950545 0.16266172 -0.2182571 -0.024136897 0.23576914 0.24441914 -0.6677334
0.13613349 -0.013893666 -0.11482681 0.022959262 0.0039524157 0.21154134 0.002834284 0.43872222
0.1075734 0.36547253 -0.44134352 -0.10875959 0.03128494 0.23869924 0.33054805 -0.015524857
-0.38577765 0.38897693 -0.18886212 0.3194949 0.194188 -0.04620115 -0.0592615 0.019225568
-0.03033068 -0.47923753 -0.07058444 -0.31511205 -0.106207564 -0.35353643 -0.13377944 -0.29870805
-0.6289998 -0.44827744 -0.07029324 -0.038187023 0.1191212 -0.15979931 -0.122023515 -0.013423747
-0.038971648 0.4032158 -0.5024401 -0.5241251 -0.38523638 0.1425136 0.38790897 -0.0053252876
0.20090058 0.022104122 -0.008864442 0.033129107 0.33687633 -0.041162554 -0.1452721 -0.6130489
-0.23056187 0.0759478 -0.062925324 -0.030683838 -0.3675527 -0.06826624 -0.11007038 -0.08250584
-0.06620573 0.42569378 0.05502411 -0.12062455 0.09429387 0.0051348405 -0.514527 -0.026975447
-6.833501e-05 0.0071849898 -0.12780246 -0.3040689 0.5483493 -0.04508479 0.22967725 -0.5089758
-0.05620139 -0.5381249 -0.33689705 0.24797405 -0.018018931 -0.13820557 0.034492437 -0.32122082
-0.06939756 -0.09327448 0.4127435 -0.10431419 -0.49241614 -0.028760552 -0.47674242 -0.052287824
0.046354212 -0.15964931 -0.07391081 -0.06522623 -0.03120723 -0.022337178 -0.40703246 -0.050392248
-0.106312126 -0.4386884 -0.4261922 -0.07902874 -0.053985216 -0.16604558 -0.23249315 -0.08868526
-0.28193247 0.25281158 0.16548778 0.0014105354 -0.3392397 -0.13176431 -0.18354434 -0.10174967
-0.0217921 -0.30187967 -0.32611758 0.07033771 -0.2682333 0.0027647885 -0.34460303 -0.011678954
0.036469713 -0.00050337677 0.45091832 0.006006655 0.43646365 -0.29357386 0.40533483 0.014869002
0.19302164 -0.08194129 0.34307593 -0.3294285 -0.002510887 0.38020754 -0.21642365 -0.16171528
0.00020523655 -0.035001878 -0.04088201 0.07315367 -0.35113934 -0.022206098 -0.4084336 0.39815116
-0.1595349 -0.22881427 -0.41666952 -0.022886828 -0.4259689 0.034480795 0.1510978 -0.0055840663
-0.13278893 -0.10563729 0.0037345372 -0.58493173 0.21079193 0.006573284 -0.42345777 -0.055058483
-0.33757302 0.34847307 0.35579127 0.02505511 0.47634897 -0.046679974 -0.11733365 -0.085512884
0.09358791 -0.4506215 0.012270384 -0.28965172 -0.060240045 -0.5076407 0.08090006 -0.0008618307
-0.015039313 -0.09404654 0.014009806 0.38405767 0.010026105 0.22553076 -0.39791742 -0.56393164
0.19760643 0.08672348 0.00053812616 -0.015314258 0.32640213 -0.02788372 -0.02417351 -0.25316185
-0.23380561 0.21485259 -0.019340023 -0.18037203 0.31201056 0.0017039627 -0.05363742 0.40953785
-0.2058304 0.029230153 -0.16398828 -0.06382878 0.35671842 -0.020474952 0.17719752 -0.2509133
0.14747895 -0.033069924 -0.011479868 -0.21354282 -0.2550069 0.41330993 0.021902366 -0.09079397
00000000: 9bc4 74bc 9331 7cbe ed8b bcba a538 173f
00000010: e27f c13e 84de 4b3d 023f babc 685d 6c3e
00000020: 1e10 0ebe 9f9b 0ebe ce9b 06be 31be e1be
00000030: bea4 cdbd 34a0 31bb 9c40 52bd 183f 5bbc
00000040: e78a 283e 8e30 eabe 97e4 5d3e b1b6 73bd
00000050: 3056 94be 228f 6dbd a0e7 dabe b19c 7bbe
00000060: acd6 6dbd 6211 973e cb90 263e ca7e 5fbe
00000070: beba c5bc 776d 713e 0349 7a3e 93f0 2abf
00000080: 9466 0b3e 42a2 63bc 522a ebbd 1015 bc3c
00000090: 4483 813b 4b9e 583e 65bf 393b 33a0 e03e
000000a0: 714f dc3d 371f bb3e c7f7 e1be 59bd debd
000000b0: a324 003d 936d 743e 983d a93e f85b 7ebc
000000c0: a684 c5be fc27 c73e 1265 41be d694 a33e
000000d0: 38d9 463e 6b3d 3dbd 30bc 72bd f07e 9d3c
000000e0: 0c78 f8bc 9f5e f5be 938e 90bd 5e56 a1be
000000f0: 5a83 d9bd ba02 b5be 7afd 08be 43f0 98be
00000100: 2206 21bf 9f84 e5be e7f5 8fbd ff69 1cbd
00000110: d1f5 f33d 6ea2 23be 77e7 f9bd 47ef 5bbc
00000120: bca0 1fbd 4d72 ce3e ea9f 00bf 102d 06bf
00000130: b43d c5be 16ef 113e 019c c63e c07f aebb
00000140: e2b8 4d3e b413 b53c 2a3c 11bc 63b2 073d
00000150: 0e7b ac3e 119a 28bd 36c2 14be c6f0 1cbf
00000160: 6918 6cbe 858a 9b3d fede 80bd ac5c fbbc
00000170: de2f bcbe 2ccf 8bbd 946c e1bd d2f8 a8bd
00000180: df96 87bd 89f4 d93e f660 613d 010a f7bd
00000190: 251d c13d 2a42 a83b 0bb8 03bf 9dfb dcbc
000001a0: 144f 8fb8 1070 eb3b a6de 02be ebae 9bbe
000001b0: 9f60 0c3f d4aa 38bd 8330 6b3e 3d4c 02bf
000001c0: 6e33 66bd 8ec2 09bf c57d acbe e9ec 7d3e
000001d0: 709c 93bc c385 0dbe f147 0d3d 0e77 a4be
000001e0: 4f20 8ebd b106 bfbd 1e53 d33e aea2 d5bd
000001f0: f81d fcbe 409b ebbc 9517 f4be c22b 56bd
00000200: eadd 3d3d 1c7b 23be 8d5e 97bd 5495 85bd
00000210: 4ea6 ffbc 75fc b6bc 8f66 d0be 1a68 4ebd
00000220: 2cba d9bd c49b e0be dd35 dabe d2d9 a1bd
00000230: 9a1f 5dbd da07 2abe af12 6ebe 9ea0 b5bd
00000240: 7459 90be 8570 813e a175 293e b7e1 b83a
00000250: d3b0 adbe 39ed 06be 0cf3 3bbe 2262 d0bd
00000260: 5985 b2bc f98f 9abe e2f8 a6be 380d 903d
00000270: e055 89be 7431 353b cf6f b0be 1559 3fbc
00000280: 4461 153d 0bf5 03ba c4de e63e 79d3 c43b
00000290: 2a78 df3e 504f 96be 0c88 cf3e 1d9d 733c
000002a0: 77a7 453e d6d0 a7bd a6a7 af3e daaa a8be
000002b0: b28d 24bb 90aa c23e 299e 5dbe b198 25be
000002c0: c434 5739 215e 0fbd e573 27bd 97d1 953d
000002d0: 89c8 b3be 90e9 b5bc 351e d1be 78da cb3e
000002e0: 1e5d 23be 4a4e 6abe b555 d5be 287d bbbc
000002f0: 9818 dabe bc3b 0d3d 62b9 1a3e 8bfa b6bb
00000300: d2f9 07be 5d58 d8bd 23bf 743b 16be 15bf
00000310: d7d9 573e b464 d73b 75cf d8be 0185 61bd
00000320: 5fd6 acbe 106b b23e 462a b63e 6040 cd3c
00000330: 03e4 f33e 8033 3fbd a04c f0bd 6121 afbd
00000340: 05ab bf3d dcb7 e6be b809 493c 3b4d 94be
00000350: 44be 76bd bef4 01bf eeae a53d 7bec 61ba
00000360: 7367 76bc 799b c0bd 6389 653c 35a3 c43e
00000370: 8844 243c 89f1 663e d5bb cbbe d35d 10bf
00000380: 5759 4a3e 149c b13d 0911 0d3a a7e8 7abc
00000390: 2e1e a73e 666c e4bc 8607 c6bc 6e9e 81be
000003a0: bd6a 6fbe 5102 5c3e f86e 9ebc 72b3 38be
000003b0: d9bf 9f3e 8057 df3a e9b2 5bbd f2ae d13e
000003c0: 34c5 52be 1374 ef3c 8bec 27be aab8 82bd
000003d0: cca3 b63e 16bb a7bc 4473 353e b577 80be
000003e0: b904 173e 5474 07bd 0e16 3cbc f8aa 5abe
000003f0: 4490 82be 5c9d d33e 976c b33c 30f2 b9bd

linear2.bias f4 [3]
0.12733921 -0.037399657 -0.07462802
00000000: 3665 023e 6230 19bd 93d6 98bd
