RL-agent/best_model/20-10-2022_14-53-45_score-52_model.pth (torch, 16799 bytes, 4 tensors)

linear1.weight f4 [256, 11]
00000000: 2254 bd3d e5f0 1ebc d08b 4abd e432 a33e
00000010: 5792 38bc 5f52 d1be 67eb 88be d662 a5bd
00000020: 4b8d cfbe 12a9 b33e a309 413e f524 0ebe
00000030: f0e4 953c f549 2abe f09f 58be 52ad 5fbe
00000040: 6afc b23e 9b8d f73c 36b1 863e 4a5b 443e
00000050: 90cd ccbe a89d 0dbe f000 ba3e c52a e83b
00000060: c79d 19be 5eaf d13e 7334 2bbe 1922 f43c
00000070: 24c0 13be 4071 e63e 3eb2 0bbe febc 583e
00000080: 1ef2 d13e 5fdc 963d 36cd 67bd 2a06 033e
00000090: d35b 3e3e 4536 86be 135f aa3e fb6f 38be
000000a0: a8b1 683e bc2c c3be 691e b1be b1e4 443b
000000b0: c0e3 2fbd cf6b 0fbe e072 57bc 656c 783d
000000c0: c329 133d 6b16 98be 0f7e 96be 4271 66be
000000d0: dc22 bbbb 1a8c 83bd 98b0 6d3e 2055 c53c
000000e0: 0a89 b13e 9049 8bbd ce10 e13c 41fb 1dbf
000000f0: 9bbc 043f 972d cabe ebf8 debe 02bd 0abf
00000100: 49d8 0d3e 9a24 5ebf b0ec a43d b25e 1d3d
00000110: be9f 35bd 3861 d4be 3363 f33e 4d5b 6a3d
00000120: 39af edbe 7982 de3e 4d3d d6be 5d04 0bbf
00000130: 78fa 1abf 8755 e73d 336c 383e 84ec 5d3e
00000140: 70a0 84be 6d2d cdbe 6eb0 273e c91d 8a3e
00000150: 751d 063e 7e3f 323e b3a5 89be 450b d8be
00000160: 6986 fdbe becc 4c3e af3a 273e 7102 b13c
00000170: 761b 5dbe 612e 433d 62c2 51bd f0c5 083e
00000180: 1088 1c3e 7d1a 913d 51ae 433e a8a9 43be
00000190: 176a fa3d f940 33be 6b8c 373e 5ef7 d03c
000001a0: 0e68 c9bc 023b 8abd 15c5 7a3d 59c0 3ebd
000001b0: 5aea 623c c25d 3ebe e75a c9bd d151 dcbd
000001c0: 10c3 ddbd ff99 ce3b ceff 27bd 9246 f33d
000001d0: c7e5 6dbe 75fd 9c3e 4121 443e 1fe4 d13d
000001e0: 635d f93e f241 933c 01a8 323e dbcf 8bbc
000001f0: 00ca 5e3e 5988 06bf c352 50bc af02 0ebf
00000200: 1156 b0be e080 bf3e cb2d dfbe d681 f0bd
00000210: ed1e 6bbd 4ab7 113d 9aa7 19be 1de5 90be
00000220: c5d6 95be c231 99be 19b1 d53e 6818 dabe
00000230: 964f 83be 1010 0fbf b1dd 293e da0a a83b
00000240: 9039 adbe b6d7 243d 4386 44bf 6905 45bf
00000250: 4f4a a43e 0523 113d fc89 18bf ddd0 bdbe
00000260: 4129 e23e 8d9a ea3e b80d 953e 8e02 183e
00000270: e99f 7b3b d588 763e 3953 bbbe c3d9 24be
00000280: 91cc 13be b5e8 f1be f52f 1f3e 19c1 65be
00000290: f612 b6be c5f8 ae3d d756 1dbe 997e bfbd
000002a0: 0718 d93a 0d79 adbd e694 0dbd e167 c8bc
000002b0: 4bbd d93e 1232 d03e 98b3 d93e 0fb6 e63e
000002c0: ec4e af3d ff6d a63d 7e4a cf3c 1af9 c4bd
000002d0: 2752 19be 9bf5 7ebe fda7 16bd b64e cb3e
000002e0: c790 a53e f716 033f fe9c b53e 22d1 72be
000002f0: 76c5 d2bd 7866 97bd f446 febd 12a3 91bc
00000300: a725 173d dedc cebd bd83 27bd aebb 9b3d
00000310: 485b 9ebe cea7 76be 33a8 4ebe 08eb 27bf
00000320: 61af ae3e 596c 003f e181 a7be 7bc3 e3be
00000330: faf3 153e e24c 9cbe 592e cd3e 88dc 69be
00000340: 36c2 66be 9b49 90be 343a 8fbe 0658 1a3e
00000350: 1a05 d93c 6915 87be 8465 753d a31a 84be
00000360: bd3d c73d 40af 393d d26f 123d 0994 9c3e
00000370: b4bd 673e afed 0d3d 14b8 a5be b4a4 c13d
00000380: f453 41bc 1ab6 00bb ff74 993d 3d90 9d3e
00000390: 2a18 4d3e 4c22 b03e 7186 a23e eb71 603e
000003a0: 523e 9b3d 74df 303d 7dfa 8dbd ea9a adbe
000003b0: e196 a6be 44bc d33e 60b6 eb3e bfea aabe
000003c0: 3a25 cb3e 3c00 a9be 2449 92bd 8349 9b3b
000003d0: 53cf e63d 875c 643e 184f ad3e 49a7 2bbe
000003e0: 53de 6dbe 1bb9 bb3d 3bbc 4a3e b26b 18bf
000003f0: db01 f1be 69a8 b4be cd08 58be 2d1c 603c
0.09244563 -0.009700988 -0.04944974 0.31874764 -0.011265359 -0.40883157 -0.26742098 -0.08075492
-0.40537485 0.35089928 0.18851332 -0.13881285 0.018297642 -0.16629775 -0.21154761 -0.2184346
0.34958202 0.03021889 0.26307076 0.19175449 -0.40000582 -0.13829672 0.3632884 0.0070851767
-0.15001594 0.40954107 -0.16719227 0.029801415 -0.14428765 0.45008278 -0.13642213 0.21165845
0.41005033 0.07366251 -0.05659219 0.1279532 0.18589716 -0.2621328 0.3327566 -0.18011467
0.2272402 -0.38120067 -0.34593514 0.0030043537 -0.04294181 -0.1400597 -0.013149947 0.060650248
0.0359285 -0.29704604 -0.2939305 -0.22504142 -0.0057109427 -0.064232066 0.23211896 0.024088442
0.34674865 -0.0680114 0.027473833 -0.6171151 0.5185029 -0.39487907 -0.43549284 -0.54194653
0.13852037 -0.867746 0.08052957 0.038420387 -0.044341795 -0.41480422 0.4753662 0.057215977
-0.46422747 0.43458918 -0.41843644 -0.5430353 -0.60538435 0.1129561 0.18010025 0.21672255
-0.25903654 -0.4007372 0.16375896 0.2697585 0.13097174 0.17407033 -0.2688423 -0.42196098
-0.4951661 0.19999978 0.1633098 0.02160761 -0.21592507 0.047651652 -0.05121077 0.13356757
0.15286279 0.0708513 0.19109465 -0.19107687 0.12227266 -0.17505254 0.17924659 0.025508579
-0.02458575 -0.06749536 0.06122311 -0.046570156 0.013849819 -0.18590453 -0.09831791 -0.10757793
-0.10828221 0.006304979 -0.04101544 0.118786946 -0.23232184 0.30662122 0.1915331 0.10248589
0.4870406 0.017975781 0.17446901 -0.017066887 0.21756744 -0.525518 -0.012715044 -0.55472845
-0.34440663 0.3740301 -0.43589625 -0.11743514 -0.05740254 0.03557519 -0.15005341 -0.282998
-0.2926542 -0.29920775 0.41736677 -0.42596745 -0.25646657 -0.55883884 0.16588475 0.0051282467
-0.3383298 0.04024478 -0.7676737 -0.7696138 0.32087943 0.035433788 -0.5958555 -0.37073413
0.441721 0.45821038 0.2911203 0.14844725 0.0038394874 0.24075635 -0.3658693 -0.16098695
-0.14433505 -0.47247854 0.15545638 -0.22436942 -0.3556134 0.08543543 -0.15365158 -0.093503185
0.0016562947 -0.08470354 -0.03456583 -0.024463596 0.42527232 0.406632 0.42519832 0.45060775
0.08559975 0.08126449 0.025304075 -0.09617825 -0.14972745 -0.24898379 -0.0367813 0.3970849
0.3233702 0.51206917 0.35471338 -0.2371259 -0.10291569 -0.07392591 -0.12415877 -0.017777953
0.036901142 -0.10100721 -0.04089712 0.076041564 -0.30929017 -0.2408745 -0.2018135 -0.65593004
0.34118178 0.50165325 -0.32716277 -0.44485077 0.14643851 -0.30527407 0.40074423 -0.22838032
-0.22535023 -0.28181157 -0.27974093 0.15072641 0.02649169 -0.26383522 0.059911266 -0.25801572
0.097285725 0.045333147 0.03575117 0.30581692 0.2263096 0.0346505 -0.32367003 0.09455243
-0.011799801 -0.001963979 0.07493018 0.30774108 0.20028749 0.34401166 0.31743196 0.21918456
0.07580246 0.04318185 -0.069325425 -0.33907253 -0.32536986 0.41354573 0.4603758 -0.33382222
0.3967684 -0.3300799 -0.07142857 0.004738988 0.11270013 0.22300921 0.33849406 -0.16763033
-0.23229341 0.091661654 0.19798367 -0.5953933 -0.47071728 -0.35284737 -0.21097107 0.013678593

linear1.bias f4 [256]
00000000: 6e81 9c3d f307 6dbe 572d 96be 91c7 cdbd
00000010: a078 9abe bdf7 a03e 8983 503c cd20 9cbd
00000020: 432a 22be 543d c1be fe8a adbe 1f23 e63d
00000030: ce51 d23d aabc 9b3e ab04 a6bd baa5 d5be
00000040: 1c4b 9cbe 173d fdbd 34b7 6abe b24b 61bd
00000050: b7cf cebe f908 30be 0f28 e63c a60a 84be
00000060: d41c ecbe 5c5a 83be 8d25 8fbd 10d9 09bf
00000070: 0758 82be 3ef1 41bd e415 95be 3a79 b4be
00000080: ec22 8cbe 8ed4 c9bd 2e21 8cbe 891b 8dbe
00000090: cd86 77bd e552 41bd 7ca0 03be 66f8 8dbe
000000a0: dc5c bfbe 2436 6f3f 6e83 503e 3c7d aebe
000000b0: 7ca6 a6be eb57 1ebd 5aef a5be 527c 873e
000000c0: 5cce 3dbe 7a8a eabe 9d1b 9bbe dc18 2bbe
000000d0: ab2d 0cbd 77f9 91be dbe8 dbbe 018f 3abe
000000e0: be7b b9bd e488 49be c881 223e e712 52bd
000000f0: 7ef1 823f adac f3bd a87c 95bd 4ffa 95be
00000100: 08e4 abbd dcfa 34be 99aa 14be 789b a8be
00000110: b663 053e 019a 4d3e 81f7 f83b 40f2 6dbe
00000120: 226f 9dbb 8e89 69bd bddd 8cbe 77bf cabb
00000130: fb10 84be 7fe3 3cbd 0c1b d5bd 8a1e 53be
00000140: 9abb 8abe 0d30 743e 5c94 c4be cf35 ccbe
00000150: 8338 efbe 530b 78bd 26c7 6dbe 33cd c8be
00000160: 8724 873c 8219 a0be c2e3 06be a4f6 06be
00000170: 9267 ae3c 2728 14be f437 043f 497e 3ebe
00000180: 8745 243c 64bc 17be 77c5 2bbe 475f 943e
00000190: 3737 99bc 62ba 673f 1dd8 74be b90c 62be
000001a0: ed44 a73c 338d 40be 8629 54be a8de e5bd
000001b0: bde1 ce3e 579a 76be b6aa 21be 08db 0e3d
000001c0: 88ab 51be 8772 123d b84e 03be 5467 6cbe
000001d0: e6b2 963d 6f73 bebd a6c8 cb3e 8d1d 063e
000001e0: 01fb dabe debb a8bd 4bda a03c 4acf 13be
000001f0: c00c 20be 5230 7bbe 9f7e 05be a595 dfbe
00000200: e6f8 c8be 34f8 81be fd60 29be db7d 79be
00000210: 88ac f0bd 40bb 87bd 488a 4a3e bf85 8bbe
00000220: e98d 633e 1fee 3dbe edf1 b9bd eaed 61be
00000230: 7f86 a6be 0350 af3e 3236 cc3d c47c c83d
00000240: 06ce 8b3d 430e 65be 3ce9 44be 8110 3abd
00000250: 98da 8a3d 3dd3 07be 44d2 393e 18c3 703e
00000260: c4bd 88be c66a acbe 4b50 e5be 02bc 2abe
00000270: cd45 97bc 00f0 76be fab6 69be 2087 d9be
00000280: 721c 89be 41b3 f3be 4d73 17be cc58 e1bd
00000290: d3dd d4be a8e4 903d 9dc9 a5bd 111c d93d
000002a0: 4f18 9dbe 404b 3a3b 8f48 7ebe 6f5a 38bd
000002b0: a89d 57be e8ba 5d3d ea02 8abd 26c1 acbe
000002c0: beac 6d3d 9873 1bbd fc1e 80be 2df5 02bd
000002d0: a965 abbe b4f0 1a3e 034f 16be 69d2 04be
000002e0: b28e 98be e9dc bebe c251 a63d 71dc 77be
000002f0: 30d6 debe 0864 bd3c c33f 8abe 65e0 7fbe
00000300: 6832 85be 58ba 38be 05dd a2be 23f9 93be
00000310: b71a 9bbe 23fb 69bd f1b4 a03e d6d0 42bd
00000320: a951 dbbc 591c dfbc a836 5fbd 4ef8 b83e
00000330: 8999 05be 6ff6 cfbd c43d 873e 01b1 91be
00000340: fa5a 34bd a30a a0be 434b 17be fd07 bfbe
00000350: fbea 62bd 26b7 77be 6f5a 54be ca06 63be
00000360: 63f3 c8bd 960b d5bd c15e 02be a119 acbe
00000370: bbd6 1abe 80e1 26bb b3a8 9dbe 75d8 8dbe
00000380: 1a1b a43c 4acf 7fbe ffa3 c6bd 6f66 963e
00000390: 18b4 83be a361 a6bd 8611 8cbe ed9b 8cbe
000003a0: dd9a a5bd f09c 2a3e dde1 8dbe 4f37 eebd
000003b0: c0ca 39be f367 d1be c391 e6bd 64df d0be
000003c0: 285d 22be 2ea4 62bd fa8c aabe b709 9ebd
000003d0: aa50 15be 920d 0fbe 5e4c 83bd f5f6 8b3e
000003e0: 69e0 7d3d 9e0f bfbe 7473 91be 1c1b 99be
000003f0: 7bca 9cbd 37fc b93e 3eed 9bbd 42ca bebd
0.07641874 -0.23147564 -0.29331467 -0.1004783 -0.30170155 0.3143901 0.012726673 -0.07623444
-0.15836434 -0.37742102 -0.33895105 0.112371676 0.10269509 0.30417377 -0.08106359 -0.41728002
-0.30526054 -0.123651676 -0.22921449 -0.05500383 -0.4039285 -0.17190923 0.028095273 -0.25789374
-0.46115744 -0.25654876 -0.06989584 -0.53846836 -0.25457785 -0.047349207 -0.29118264 -0.3524874
-0.27370393 -0.09854995 -0.27369064 -0.2756007 -0.06043129 -0.047198195 -0.12854189 -0.27728575
-0.37375534 0.9344199 0.20362636 -0.3407992 -0.32548892 -0.038658064 -0.32409173 0.26462036
-0.18535751 -0.45808774 -0.30294505 -0.16708702 -0.03422324 -0.2851064 -0.42951092 -0.18218614
-0.09056805 -0.19681126 0.1586982 -0.051287558 1.0229948 -0.1189817 -0.07299167 -0.29292533
-0.08393103 -0.1767382 -0.14518203 -0.32931113 0.13026318 0.20078279 0.007597864 -0.23236942
-0.004804508 -0.057015948 -0.27512923 -0.006187375 -0.25794205 -0.046115395 -0.104055494 -0.20617118
-0.27096254 0.23846455 -0.3839444 -0.39884803 -0.46722803 -0.060557675 -0.232205 -0.39219055
0.01649691 -0.3126946 -0.1317282 -0.13180023 0.02128962 -0.14468442 0.5164788 -0.18602861
0.010026342 -0.14817959 -0.16774546 0.2897894 -0.018703086 0.9051877 -0.23910566 -0.22075166
0.020418609 -0.18803863 -0.20718965 -0.11224109 0.404066 -0.24082313 -0.15787777 0.034876853
-0.2047559 0.035753753 -0.12822998 -0.23086292 0.07358341 -0.09299361 0.3980152 0.1309721
-0.42769626 -0.08238958 0.01963534 -0.14434543 -0.15629864 -0.24530151 -0.13036583 -0.43668857
-0.39252394 -0.25384676 -0.16540904 -0.24364416 -0.11751658 -0.06627512 0.19779313 -0.27250478
0.22222103 -0.18547867 -0.09079347 -0.22063413 -0.32524487 0.34240732 0.099712744 0.09789422
0.06826405 -0.22368722 -0.19229597 -0.045425896 0.06779975 -0.13264175 0.18146616 0.23511922
-0.2670728 -0.33675212 -0.4478782 -0.16673282 -0.0184659 -0.2411499 -0.22823706 -0.42485905
-0.26779515 -0.47597697 -0.14790078 -0.11003265 -0.41575488 0.07074863 -0.08095095 0.10601056
-0.30682608 0.00284262 -0.24832366 -0.04500812 -0.21056235 0.054133326 -0.06738837 -0.3374111
0.058026068 -0.037952036 -0.2502364 -0.0319721 -0.33475998 0.15130883 -0.14678578 -0.1297089
-0.29796368 -0.37277916 0.08121063 -0.24205185 -0.43522787 0.023118988 -0.2700177 -0.24987943
-0.2601502 -0.18039834 -0.3180925 -0.28901014 -0.3029382 -0.05712427 0.31388047 -0.047562443
-0.026772337 -0.027235197 -0.054495484 0.3612694 -0.1304685 -0.10154425 0.2641431 -0.28455356
-0.044032075 -0.31258115 -0.14774804 -0.37310782 -0.055399876 -0.2419096 -0.20737623 -0.22170559
-0.09812047 -0.104026005 -0.12731458 -0.33613303 -0.15120976 -0.0025463998 -0.3079277 -0.27704206
0.020032454 -0.24981418 -0.096992485 0.29375026 -0.25723338 -0.081240915 -0.2735712 -0.27462712
-0.080861785 0.1666143 -0.27711383 -0.11631643 -0.18143749 -0.4089962 -0.112582706 -0.40795434
-0.15855849 -0.055332355 -0.33310682 -0.07716697 -0.14581552 -0.1397002 -0.0641105 0.2733685
0.061981592 -0.37316602 -0.28408396 -0.29903495 -0.076558076 0.36325237 -0.0761361 -0.09315921

linear2.weight f4 [3, 256]
00000000: 402b 85be 585a 01bc f07f 25be 80e9 b7bd
00000010: 253e cbbb dc44 053f 73e9 f33e 38c8 dbbc
00000020: f9c4 60bc 4865 773c 4410 4abd 3736 a13e
00000030: 4bc0 ad3e db53 eb3e 00d7 263e 68e6 ffbd
00000040: c0f1 26be 18a9 09bd b305 a23e b10a 9cbc
00000050: ce96 c8bd 0288 abbe 0eae ac3e 4156 2a3e
00000060: 33b9 84bd ee65 5dbe 0fc7 8f3a 7272 b8be
00000070: f218 25bd b9be 73be 34bf cfbe a60d 09bb
00000080: 8fb9 833d 1d68 d03e 203e 79bc a5db 7c3b
00000090: 959e c53b e212 fdbd 0036 1539 5c05 16bd
000000a0: dbdf 3dbc 80a2 543e 175d 0a3e b87f 8cbd
000000b0: fd89 d9bd 2eeb a23c 1201 393c 6d55 b93e
000000c0: abf9 d2bd 8a29 82be d3bd b7bb 1940 13be
000000d0: 321c 393c f2a5 55be 5563 5fbe 8f56 c8bd
000000e0: 3807 403e 0968 0dbc 8232 bb3e e8f1 e9bd
000000f0: 5134 843e 34a3 f43a 2049 f9be 6494 1c3c
00000100: 5b80 c1be 4dec 39bd 12a3 b7bb c0d6 9ebd
00000110: d02e ae3e cf32 b53e 8cc3 03b9 ad18 04bc
00000120: 058e 88be f7b2 6f3e 61d6 87bd 4a72 97bc
00000130: 1e3a cebc 68f3 493e 6580 b8bb 5225 96bd
00000140: d047 9f3e ce54 e43e 6ace 01bc b328 aabd
00000150: fb28 b9bd 197c a23e 25b1 2abc 76f3 9fbc
00000160: bae7 6fbd 92a8 87ba 60a2 bcbe 30ad a9be
00000170: 1d7a a83e 151b 00bd c228 213e c2c6 d4bc
00000180: e663 dc3e a667 46be 1e07 b3bd 314b a43e
00000190: f6ad bd3e b6fc 883e f2a2 c838 80ee febc
000001a0: bd8b 03bf 8571 74bd c62f 34bd 3d35 7bba
000001b0: b538 ff3e a55a 90be bb58 33bd 6141 a53e
000001c0: 7162 b6bd d89a 50bd 57a2 89be d7f8 18be
000001d0: 6441 f43e ea6d 853a 1e59 0f3f 4cba 8b3e
000001e0: e27c 62be fac2 f3be 0dac bfbe 014b 493c
000001f0: 2fa6 febe 140a 41bb ff25 8abd 0531 46bb
00000200: 78f4 6bbc a95b de3b 8e21 c1be 5657 89bd
00000210: bd84 3cbd 386f 8a3e 619d af3e 09ef 8dbe
00000220: c115 883c 1b92 923e 4a66 a6be a889 f73b
00000230: a786 673a 280f b13e 58d2 e2bd 007a a73e
00000240: 0f14 263f 3490 803e 8683 8ebe 3fa5 57bd
00000250: 3cd2 b6bd 06f0 c3be 6366 903c 8ff0 7e3e
00000260: 03a2 32be 8437 483c b8af e8bc ea9e 463e
00000270: d43e 2abe 3f90 a0be 2c28 07bd ce34 43be
00000280: c6f1 a3bd 4141 2dbe 45d0 f4be b1f1 733e
00000290: 330e 4cbd 37bc 83bd bac3 a3bc afa9 55be
000002a0: ff53 5dbc 61a3 4d3e 09a3 8bbd 9da8 dabe
000002b0: 88e4 b3be 8db4 8a3e 427c b8bd 7dbc 86bd
000002c0: a45a fe3e 631b 54bd 881d a9be c9ac 05be
000002d0: bdf9 36bd f55c a7bd aead 94bb 07d5 acbe
000002e0: a0a3 93bb b7eb 65bd 3e58 8cbd 4e7c 71bc
000002f0: 8c61 a73c c057 04bf a28d 2bbe 16e6 24bd
00000300: 04c9 8ebc 5a7d 11bf b03e 97bd 0e01 72bd
00000310: 78b4 243c 1ed4 d03d ff09 943e f03f a73e
00000320: 2f9a 73bb 7e5b cc3d 1745 81bd df21 803e
00000330: 8045 bcbe 9d47 87bb dd97 ee3d 79e8 4bbd
00000340: e195 ae3e 32a1 92bc 7c9c aabc b3c6 bdbc
00000350: 0d90 743e d845 433d c6e7 f8be c457 763e
00000360: ebdb c83c d7ce 8cbe d181 d4bd 78b6 15be
00000370: b5b4 953c dcab e33c 124d 17be b4b6 bbbe
00000380: be8b b13e 0e53 78bd 0059 0d3d 07dc bb3e
00000390: 1f98 383c a7bb aabd aac8 14be 3c5c 833c
000003a0: faa5 aabd a964 1ebe b766 fd3b ca94 88bd
000003b0: 81b0 653e 3405 d2bc 8691 2a3e 88ee 95bc
000003c0: be17 c0bd 58b2 04be 6609 28bd 4c44 bb3e
000003d0: a43a bbbe 20eb b0bd 8aeb f2be 3279 8f3e
000003e0: dd1b 15bd aa9c bebc 6ade 9abd 72ce 81bc
000003f0: fd73 cfbe 9214 713e 3e5e 23be 45c0 cbbe
-0.2600956 -0.007895075 -0.16162086 -0.089800835 -0.0062024766 0.52058196 0.47639045 -0.02682887
-0.013718837 0.015099831 -0.04933192 0.31486675 0.3393577 0.45962414 0.16292953 -0.124951184
-0.16303158 -0.033608526 0.31644973 -0.019048067 -0.09794389 -0.33502203 0.33726543 0.16634466
-0.064806364 -0.21620914 0.0010969358 -0.36024815 -0.040306993 -0.23803224 -0.40575564 -0.0020912676
0.06431877 0.40704432 -0.015212566 0.0038583067 0.0060308673 -0.12357117 0.00014229864 -0.036626205
-0.011589016 0.20765114 0.13512073 -0.06860298 -0.10622022 0.019887533 0.011291759 0.36197987
-0.10301527 -0.25422317 -0.0056073456 -0.1437992 0.011298226 -0.20864084 -0.21815236 -0.09782135
0.18752754 -0.008630761 0.36561972 -0.11423093 0.25821164 0.0018664361 -0.48688602 0.009556863
-0.3779324 -0.04539137 -0.0056041563 -0.07755804 0.3402009 0.35390326 -0.0001256598 -0.008062524
-0.26670852 0.23408113 -0.066326864 -0.018487114 -0.025174197 0.19721758 -0.00563054 -0.07331337
0.31109476 0.4459595 -0.007922748 -0.08308544 -0.090410195 0.31735304 -0.010418211 -0.01952527
-0.0585706 -0.001034992 -0.36842632 -0.33139944 0.32905665 -0.031275827 0.15738204 -0.025973681
0.43044966 -0.19375476 -0.08741592 0.32088616 0.37046784 0.26755303 9.567094e-05 -0.031119585
-0.513851 -0.059678573 -0.043990873 -0.0009582823 0.49847952 -0.28194156 -0.04378579 0.32276443
-0.08905495 -0.05092892 -0.26881668 -0.14938675 0.4770614 0.0010179852 0.5599536 0.2729057
-0.22117952 -0.47609693 -0.37435952 0.012285949 -0.49736163 -0.002945547 -0.067455284 -0.003024162
-0.014401548 0.006785829 -0.37720913 -0.06706111 -0.046025027 0.27037978 0.34299758 -0.27721432
0.016611936 0.28627095 -0.32499915 0.0075542517 0.00088320154 0.34581876 -0.11075276 0.32710266
0.64874357 0.25110018 -0.2783472 -0.052647825 -0.08926818 -0.3826906 0.017626947 0.24896453
-0.17444615 0.012220267 -0.028404102 0.19396558 -0.1662553 -0.3136005 -0.032997295 -0.19063112
-0.08005099 -0.16919424 -0.47815147 0.23822667 -0.04981823 -0.064323835 -0.01999079 -0.2086551
-0.013508796 0.20081855 -0.06818206 -0.42706767 -0.35135293 0.27090874 -0.09008075 -0.0657892
0.49678528 -0.05178393 -0.33030343 -0.13054194 -0.044671763 -0.08172027 -0.004537306 -0.33756277
-0.0045055896 -0.056133 -0.06852768 -0.014739109 0.020432256 -0.51696396 -0.16753247 -0.04025849
-0.017429836 -0.56831896 -0.073850036 -0.059083037 0.010052793 0.10196708 0.28913876 0.32665968
-0.0037170758 0.09978388 -0.06312006 0.25025842 -0.36771774 -0.00412841 0.11650059 -0.04978225
0.34098724 -0.01789913 -0.02082657 -0.023166036 0.23883076 0.04767403 -0.4861433 0.24056917
0.024518928 -0.27501556 -0.10376323 -0.14620388 0.018274644 0.02779191 -0.14775494 -0.3666283
0.34676927 -0.060626082 0.034508705 0.36691305 0.011266737 -0.08336573 -0.14529672 0.016035192
-0.08332439 -0.15468086 0.007733192 -0.06669004 0.22430612 -0.025637247 0.16657075 -0.018302217
-0.093795285 -0.12958658 -0.041024588 0.36575544 -0.36568177 -0.086385965 -0.47445327 0.28022152
-0.036403526 -0.023268063 -0.07561953 -0.015845511 -0.4051818 0.23543003 -0.1595392 -0.39795128

linear2.bias f4 [3]
00000000: e003 8c3e f1a3 963c c990 d83c
0.27346706 0.01838872 0.026436226
