RL-agent/model/20-10-2022_16-09-19_score-2_model.pth (torch, 16799 bytes, 4 tensors)

linear1.weight f4 [256, 11]
0	0xbe30c010	-0.17260766
1	0x3c479d40	0.012183487
2	0xbe6a3128	-0.22870314
3	0x3e87c30b	0.26515993
4	0x3d33cf51	0.043898884
5	0xbe8779fb	-0.2646025
6	0xbe78844f	-0.24269222
7	0xbd3d20d8	-0.0461739
8	0x3da9e5ce	0.08295785
9	0x3e6feea6	0.23430881
10	0x3d92f33a	0.07175298
11	0x3e902568	0.2815354
12	0x3d9e3d4c	0.07726535
13	0x3e46dca6	0.19420108
14	0xbd8b45ef	-0.06800448
15	0xbe965d0b	-0.2936786
16	0xbe5e8bcc	-0.21733016
17	0xbe83d5e6	-0.2574913
18	0x3e2438f7	0.16037355
19	0x3c1135c0	0.008862913
20	0x3e49c127	0.19702588
21	0xbde2d21c	-0.110752314
22	0xbe3321a9	-0.17493309
23	0x3e634ba0	0.22196817
24	0x3d2c45c0	0.042058706
25	0x3d9ddeea	0.07708533
26	0x3e171845	0.14755352
27	0x3e79dc41	0.24400426
28	0xbc122a4a	-0.008921215
29	0xbe276273	-0.16346149
30	0x3db51f7a	0.08843894
31	0x3d985849	0.07438714
32	0xbe25aebf	-0.16179942
33	0x3e205d56	0.15660605
34	0x3dc1f5c3	0.094707035
35	0xbd7694cc	-0.060200498
36	0xbd1bf0a0	-0.038071275
37	0xbe7410fb	-0.23834603
38	0x3c74c5c0	0.014939725
39	0x3dbb695a	0.091509536
40	0xbd8b2750	-0.06794608
41	0xbe8cb469	-0.27481392
42	0x3e88f47f	0.26749036
43	0xbe88c1e0	-0.26710415
44	0xbd4ecc98	-0.050488085
45	0x3e812eac	0.2523092
46	0x3c8be060	0.017074764
47	0xbd95a19e	-0.07306217
48	0x3e11b531	0.14229275
49	0x3e71e0a9	0.23620857
50	0xbe1fe501	-0.15614702
51	0x3e4692a2	0.19391873
52	0x3e94b8e1	0.290473
53	0x3dc8a8ce	0.09797822
54	0xbd466408	-0.04843524
55	0x3b744e80	0.0037278235
56	0xbe7c2d7b	-0.24626724
57	0xbd8a5100	-0.06753731
58	0x3e5a9d5a	0.21349087
59	0x3e37fd62	0.17967752
60	0x3e48abcf	0.1959679
61	0xbe783b5c	-0.24241394
62	0xbe15f9f2	-0.14646128
63	0xbe1e3622	-0.15450338
64	0x3e1341c3	0.14380555
65	0x3e2c3443	0.16816811
66	0xbe52ef1c	-0.20599025
67	0xbc7c3b72	-0.015395032
68	0xbe9078e2	-0.28217226
69	0x3df79aac	0.12090048
70	0xbe91c40d	-0.28469887
71	0xbd287170	-0.041123807
72	0x3e85e293	0.26149425
73	0x3e207f22	0.15673497
74	0xbe67962f	-0.22615884
75	0x3d0112cb	0.031512063
76	0xbe94eb63	-0.29085836
77	0x3e1d1870	0.15341353
78	0x3da51b02	0.08061792
79	0x3e70d7dc	0.23519844
80	0x3e842ab2	0.25813824
81	0x3e2fd283	0.17170148
82	0x3e13e370	0.1444223
83	0x3e8e369d	0.27776042
84	0xbe37b6fe	-0.179409
85	0xbcbb8139	-0.022888767
86	0x3e6f950b	0.23396699
87	0xbe855aa9	-0.2604573
88	0x3df177ac	0.11790404
89	0x3e3518d8	0.17685258
90	0x3e0b4628	0.13600981
91	0xbe7b49d3	-0.2453988
92	0x3e19c56e	0.1501672
93	0xbcd73a93	-0.026273048
94	0x3dcaac62	0.09896161
95	0x3e2ef2a5	0.17084749
96	0x3e40cfa3	0.18829207
97	0x3dca5a95	0.098805584
98	0x3d9dd4a3	0.07706573
99	0xbd2afb60	-0.041743636
100	0xbd465b2c	-0.048426792
101	0xbaee0600	-0.0018159747
102	0x3dde1a02	0.10844804
103	0x3db2867b	0.08717056
104	0x3e8276a3	0.25481138
105	0x3e7ce723	0.24697547
106	0xbe18502b	-0.14874332
107	0x3e9a50eb	0.3013986
108	0xbe60a296	-0.21937022
109	0xbd927837	-0.071518354
110	0xbe34ee66	-0.17669067
111	0x3e81c209	0.2534335
112	0xbe39a624	-0.18129784
113	0x3e9b098c	0.3028072
114	0xbe08c6c4	-0.13357073
115	0x3e9ccf93	0.30627117
116	0x3e3fda3c	0.18735594
117	0xbd6e4c47	-0.058178212
118	0xbd40e28c	-0.047091052
119	0xbd12810b	-0.035767596
120	0x3e6b59f2	0.2298353
121	0x3e067202	0.13129428
122	0xbe61a11d	-0.22034116
123	0xbd8bcca0	-0.068261385
124	0x3e04d204	0.1297074
125	0x3e2317d5	0.1592706
126	0xbc8211a0	-0.015877545
127	0xbdbbbb66	-0.09166603
128	0x3e658e13	0.22417478
129	0xbe2029e3	-0.15640979
130	0xbd21bad8	-0.03948483
131	0x3da1bd74	0.078974634
132	0xbe96b85f	-0.2943754
133	0x3dfefc2f	0.12450444
134	0xbe63d024	-0.22247368
135	0xbd2e4a20	-0.04255116
136	0x3e627ef3	0.2211874
137	0x3dfdd961	0.12394977
138	0x3e6bfa47	0.23044692
139	0x3e662243	0.22474007
140	0xbc3fb91b	-0.011701847
141	0x3e712805	0.23550422
142	0x3e5dd3a0	0.2166276
143	0xbda1f226	-0.07907514
144	0xbcb14510	-0.021639377
145	0x3e0e69c6	0.13907537
146	0xbda0a457	-0.07843845
147	0x3db61b49	0.08891923
148	0xbdf16580	-0.11786938
149	0xbe71c7c6	-0.23611364
150	0x3e86797d	0.26264563
151	0xbdaf2e3c	-0.085537404
152	0xbdb91d90	-0.09038842
153	0xbc4aa08e	-0.012367381
154	0x3d457f78	0.048217267
155	0xbe5b8896	-0.21438822
156	0xbe3a3e22	-0.18187764
157	0xbd84325a	-0.06454916
158	0x3e9e1e34	0.30882418
159	0xbdba2dce	-0.09090768
160	0x3ce6c190	0.02816847
161	0xbe375f32	-0.17907408
162	0xbe37b399	-0.17939605
163	0xbe394bca	-0.18095317
164	0x3e800f4f	0.2501168
165	0xbc95b2f0	-0.0182738
166	0x3d90dc69	0.0707329
167	0x3e15828c	0.14600581
168	0xbe16a381	-0.1471081
169	0xbe5aa048	-0.21350205
170	0xbe7fbeac	-0.2497508
171	0x3e80126d	0.25014058
172	0xbd8f65c1	-0.0700183
173	0xbe934093	-0.28760204
174	0x3d9c9d6f	0.076472156
175	0xbddeb942	-0.10875179
176	0x3df1e1f0	0.11810672
177	0xbe18baf0	-0.14915061
178	0xbe942f47	-0.2894232
179	0x3e4d87ad	0.20071287
180	0xbe8da8a1	-0.27667716
181	0xbdc15b8e	-0.09441291
182	0xbdc8c4d0	-0.09803164
183	0xbd7c1738	-0.06154558
184	0x3d5f0234	0.05444546
185	0x3db5d34d	0.08878193
186	0xbe7604bf	-0.24025248
187	0x3d1a7ba0	0.037715554
188	0x3d081680	0.033224583
189	0x3e61a42c	0.22035283
190	0xbe7cb9aa	-0.246802
191	0xbd038210	-0.03210646
192	0x3e8e7065	0.27820125
193	0xbe664e10	-0.22490716
194	0x3e906e00	0.28208923
195	0x3dbd457f	0.09241771
196	0xbdce8cb7	-0.10085433
197	0x3e91d1c8	0.28480363
198	0xbdead37c	-0.11466119
199	0xbe1da10a	-0.15393463
200	0x3e4f21e0	0.20227766
201	0xbe2e7271	-0.17035843
202	0x3e64d050	0.2234509
203	0xbe91bb5f	-0.28463265
204	0xbdd88f59	-0.105742164
205	0x3e995b65	0.2995254
206	0x3cc509a6	0.024052452
207	0x3e058b16	0.13041338
208	0xbd31886e	-0.043343
209	0x3e67a270	0.22620559
210	0x3e92d79d	0.28680125
211	0xbc9a7dc0	-0.01885879
212	0xbde1aef8	-0.11019701
213	0x3e1a2c98	0.15056074
214	0xbd133568	-0.035939604
215	0xbd39d6c4	-0.045370832
216	0xbdd2e9e6	-0.10298519
217	0x3e3f4829	0.1867987
218	0xbe5402b4	-0.20704156
219	0xbd74f28c	-0.059801623
220	0xbc9235f0	-0.017847985
221	0xbe009bcb	-0.1255943
222	0x39afac00	0.0003350675
223	0x3e93950f	0.2882466
224	0xbdea3fb4	-0.11437932
225	0x3da6db49	0.08147294
226	0x3e298a9c	0.16556782
227	0xbe92ecc2	-0.28696257
228	0x3dec29b9	0.115313955
229	0x3dc67374	0.0968999
230	0x3de6ff39	0.112791486
231	0x3e1e118a	0.15436378
232	0xbd56548b	-0.05232672
233	0x3d2206e0	0.039557338
234	0x3e29fde9	0.16600765
235	0x3cd7ec14	0.026357688
236	0x3d12db47	0.03585365
237	0x3e920fd3	0.28527698
238	0x3e0331bb	0.1281194
239	0xbcc7957c	-0.024363272
240	0xbe8c0373	-0.27346382
241	0x3d11422a	0.03546349
242	0x3d345e10	0.044035017
243	0xbdcbc276	-0.099492
244	0xbdafa34c	-0.08576068
245	0x3dea91c2	0.11453582
246	0xbe99838c	-0.29983175
247	0x3d309441	0.043110136
248	0xbc9a020c	-0.018799804
249	0x3ad60832	0.0016329347
250	0x3d87ce32	0.066311255
251	0x3e8ef4ec	0.27921236
252	0xbe14afba	-0.1452016
253	0xbe434b8c	-0.19071788
254	0xbe7a76f4	-0.2445944
255	0xbe199872	-0.1499956

linear1.bias f4 [256]
0	0xbd4cd01e	-0.050003164
1	0xbe9ba1b2	-0.303968
2	0x3c17f989	0.009275802
3	0xbe7e6e15	-0.2484668
4	0xbe5a9ec9	-0.21349634
5	0xbe81d01f	-0.25354096
6	0x3e21c2ef	0.15797018
7	0xbe0a4117	-0.13501392
8	0x3d951331	0.07279051
9	0x3e016ed6	0.12639937
10	0x3e8c9b6a	0.27462322
11	0xbe67b349	-0.22626986
12	0x3e1f0fda	0.1553339
13	0xbe000212	-0.1250079
14	0xbe5f25b0	-0.2179172
15	0x3e552254	0.20813876
16	0xbe445190	-0.19171739
17	0x3e5bc349	0.21461214
18	0x3e481474	0.19539052
19	0x3da5589c	0.080735415
20	0x3ce43eb2	0.027861927
21	0x3e4c7cba	0.19969454
22	0xbe86dbba	-0.26339513
23	0xbe866a84	-0.2625314
24	0x3ce47a4c	0.027890347
25	0xbe80e13f	-0.2517185
26	0xbe018ac8	-0.12650597
27	0x3ce84c35	0.02835665
28	0x3dd94cfc	0.10610387
29	0xbca3f8de	-0.02001613
30	0xbda37fd4	-0.07983366
31	0x3d7ec3d5	0.06219848
32	0xbe06e4d0	-0.13173223
33	0xbe063b60	-0.13108587
34	0xbe2217cc	-0.1582939
35	0x3dc3f430	0.095680594
36	0x3ddc9ce7	0.10772114
37	0xbe34df7d	-0.17663379
38	0x3e5fb222	0.21845296
39	0xbe54bb57	-0.2077459
40	0x3dc64eb1	0.09682978
41	0xbe51034d	-0.20411415
42	0x3d6c4776	0.057685338
43	0x3e82a6be	0.2551784
44	0xbe7352f4	-0.23762113
45	0xbe94c7b8	-0.29058623
46	0xbe926fc9	-0.2860091
47	0x3e919851	0.2843652
48	0x3df1d543	0.118082546
49	0x3e4cc3b0	0.19996524
50	0xbea0441f	-0.31301972
51	0x3e16c084	0.14721876
52	0xbcb11f96	-0.021621507
53	0xbe46cc86	-0.19413957
54	0x3e395207	0.18097697
55	0x3d8f96bf	0.070111744
56	0xbc8b1409	-0.016977327
57	0xbd99491e	-0.07484649
58	0xbc1334db	-0.00898477
59	0x3e89b7de	0.26898092
60	0xbda77a9f	-0.08177685
61	0x3db5b3ed	0.08872209
62	0xbe65a35f	-0.22425602
63	0x3e339546	0.17537412
64	0xbd525fca	-0.051360883
65	0x3e81ddf1	0.2536464
66	0xbd10dd58	-0.03536734
67	0x3e423296	0.1896461
68	0x3dc4d483	0.09610846
69	0xbd29735a	-0.041369773
70	0x3e5d9525	0.21638925
71	0x3e3b3f57	0.18285881
72	0xbe038975	-0.12845404
73	0x3d11f308	0.035632163
74	0x3e644a6d	0.22294016
75	0xbdc11bd8	-0.09429139
76	0xbdb96105	-0.09051708
77	0x3dcb3640	0.09922457
78	0x3e63b384	0.22236449
79	0xbdcdbcdf	-0.1004579
80	0xbc9fc333	-0.019502258
81	0xbe89d8ee	-0.26923317
82	0x3d9b7ff4	0.075927645
83	0x3e5941f3	0.21216564
84	0xbe8b9f2a	-0.2726987
85	0x3e20aea6	0.15691623
86	0xbe9380bd	-0.28809157
87	0xbe6dea13	-0.23233823
88	0x3cde5835	0.02714167
89	0x3e122de5	0.1427532
90	0xbe742f87	-0.23846255
91	0x3ca25947	0.019817961
92	0xbc49665c	-0.012292471
93	0xbe0f1ed5	-0.13976605
94	0x3dd0f50d	0.1020299
95	0xbddeb9a0	-0.10875249
96	0xbe36fd43	-0.17870049
97	0xbdbec229	-0.09314377
98	0x3dd0124d	0.101597406
99	0xbdd934e7	-0.106057934
100	0x3db184f9	0.08667941
101	0xbe8d96e4	-0.27654183
102	0xbe69d625	-0.22835596
103	0xbe829570	-0.25504637
104	0x3e4f1915	0.20224412
105	0x3da836bf	0.08213567
106	0x3d8af93a	0.067858174
107	0xbe30a8fa	-0.1725196
108	0xbd6d5da8	-0.057950646
109	0x3e4f0c78	0.202196
110	0xbe8ab769	-0.27093056
111	0x3d94221b	0.072330676
112	0x3dafeab7	0.0858969
113	0x3e222b6c	0.15836877
114	0xbe9832b2	-0.29726177
115	0x3e8d0828	0.27545285
116	0xbe2f883d	-0.17141815
117	0x3dc4e6d8	0.096143425
118	0xbe4b6a67	-0.19864808
119	0x3daa348c	0.08310804
120	0xbe120c80	-0.14262581
121	0x3e46a3a9	0.19398369
122	0x3db88a9c	0.09010813
123	0x3e583eda	0.21117726
124	0x3dce3ee3	0.100705884
125	0x3e29074a	0.16506687
126	0xbdb5c67b	-0.08875748
127	0xbe44ddba	-0.19225207
128	0xbe577a4e	-0.2104275
129	0xbe6281a9	-0.22119774
130	0xbe906236	-0.2819993
131	0xbd68b6af	-0.056814846
132	0xbd208fc3	-0.0391996
133	0x3e4aecbc	0.1981687
134	0x3d43e979	0.04783008
135	0x3d145116	0.036210142
136	0x3d970aa2	0.07375075
137	0xbea87f08	-0.32909417
138	0x3da46ead	0.08028922
139	0xbdef0ec8	-0.11672741
140	0xbe441c0f	-0.19151329
141	0xbd8e12c1	-0.06937171
142	0x3e30f8d5	0.17282422
143	0x3e97dbaf	0.29659793
144	0xbd062931	-0.032754127
145	0xbd9824b4	-0.074288756
146	0xbe09ed3f	-0.13469408
147	0xbcc2774a	-0.023738522
148	0x3d0230ef	0.031784948
149	0x3d6f618a	0.05844263
150	0x3b94c0ca	0.004539584
151	0x3e904662	0.28178698
152	0x3e5e6b1e	0.2172055
153	0xbe854abf	-0.2603359
154	0x3e96f796	0.29485768
155	0x3ccdebed	0.025136912
156	0xbe1f435c	-0.1555304
157	0xbdd6e407	-0.104927115
158	0x3d64d426	0.055866383
159	0x3e0432f9	0.1291007
160	0x3e99a078	0.3000524
161	0x3dc97e6b	0.098385654
162	0x3d601732	0.05470962
163	0xbe7fdc6d	-0.2498643
164	0xbe989d04	-0.29807293
165	0x3e4bff75	0.19921668
166	0xbcafbb03	-0.021451479
167	0x3e6ac5d1	0.22927023
168	0xbc9639f0	-0.018338174
169	0x3b23199a	0.0024887086
170	0xbe7af37f	-0.24506949
171	0xba892a1f	-0.0010464824
172	0x3e9032d5	0.28163782
173	0x3e938621	0.2881327
174	0xbe861daf	-0.26194522
175	0x3d678b94	0.056529596
176	0x3e49023f	0.19629763
177	0x3dcba9de	0.09944509
178	0x3d69559f	0.05696642
179	0xbd395e6f	-0.045256075
180	0x3d979325	0.074011125
181	0xbe1771a7	-0.14789449
182	0xbe77fa81	-0.24216653
183	0xbc81c4b5	-0.015840868
184	0x3e2f7c5e	0.17137286
185	0xbe9092f1	-0.28237107
186	0x3c4f651a	0.012658382
187	0xbe8bdff2	-0.27319294
188	0x3e36fcaf	0.17869829
189	0x3dce1d11	0.10064138
190	0x3e289919	0.16464652
191	0xbe2ff3dd	-0.1718287
192	0xbe01e722	-0.12685826
193	0x3e9ab66e	0.30217308
194	0xbda70d9d	-0.081568934
195	0xbe66e439	-0.22547998
196	0xbe9905d8	-0.2988727
197	0xbe30bef8	-0.17260349
198	0x3cd6016f	0.02612373
199	0x3ccd7374	0.025079466
200	0xbe2697ec	-0.16268891
201	0x3e4df8a2	0.20114377
202	0x3de33d99	0.11095733
203	0xbe8375ff	-0.2567596
204	0xbdae1f1c	-0.085020274
205	0xbe8ef307	-0.2791979
206	0xbe5082a3	-0.20362334
207	0xbe4ad69b	-0.19808428
208	0x3dde5508	0.10856062
209	0xbe052c2b	-0.1300513
210	0xbd53b037	-0.051681723
211	0xbe14cd4f	-0.14531444
212	0xbe1f03a3	-0.15528731
213	0x3e5b1dd7	0.21398102
214	0x3e60cc04	0.21952826
215	0xbd9c490c	-0.0763112
216	0x3e4f030a	0.20216003
217	0x3d24a4e6	0.040196322
218	0x3e8f349f	0.27969834
219	0xbe6b3cac	-0.22972363
220	0xba8c7293	-0.0010715298
221	0xbe83b14f	-0.25721213
222	0xbdad478b	-0.08460911
223	0xbd0acd4a	-0.033887185
224	0x3e008be8	0.1255337
225	0xbd1ccf78	-0.038283795
226	0x3e47301a	0.19451943
227	0xbe57ad64	-0.21062237
228	0x3d365870	0.044517934
229	0x3e900ce6	0.2813484
230	0xbe41c702	-0.18923572
231	0x3e42dd22	0.19029668
232	0x3e637316	0.2221187
233	0x3e139e03	0.14415745
234	0xbe5d2f8d	-0.2160017
235	0x3e814f88	0.2525599
236	0x3e874afe	0.26424402
237	0x3e0b0f72	0.1358011
238	0x3e4cafee	0.19988987
239	0xbe250ae8	-0.16117442
240	0xbe305308	-0.17219174
241	0xbd998a0a	-0.07497032
242	0x3e38b9ae	0.18039581
243	0xbd87931f	-0.06619858
244	0x3e02cb16	0.12772784
245	0xbe3e7c37	-0.18602072
246	0xbd821071	-0.06350792
247	0xbda18614	-0.078869015
248	0xbe07d822	-0.13266042
249	0xbe8fff07	-0.28124258
250	0xbe90e151	-0.28296903
251	0xbe0e8592	-0.1391814
252	0x3e6a1979	0.2286128
253	0x3e615ce6	0.22008094
254	0x3e234ff5	0.1594847
255	0xbe6c6724	-0.2308622

linear2.weight f4 [3, 256]
0	0xbd2426c7	-0.040076043
1	0x3d51e6fd	0.05124568
2	0x3d2f2edd	0.0427693
3	0x3d5e106b	0.054214876
4	0xbdaa2195	-0.083071865
5	0x3d13ec1a	0.036113836
6	0xbd3a7412	-0.04552085
7	0x3d4a8c02	0.049449928
8	0xbd82a0a3	-0.06378295
9	0x3bb4372b	0.0054997406
10	0xbc671b4d	-0.01410563
11	0xbd909c19	-0.07061023
12	0x3caa62a4	0.020798989
13	0x3c89eac0	0.01683557
14	0xbb3dc3a0	-0.0028955713
15	0x3d35455e	0.044255607
16	0xbcc4e8ae	-0.024036732
17	0x3cf32cc1	0.029684426
18	0x3d5baf1d	0.053633798
19	0xbd7def39	-0.06199572
20	0x3c1dc4fe	0.009629486
21	0x3d37704d	0.044784833
22	0x3b593fcd	0.00331496
23	0xbcdbe991	-0.026844772
24	0x3d246569	0.040135775
25	0x3b7cfd80	0.0038603246
26	0x3bb3bbd9	0.0054850397
27	0xbc8570bf	-0.016289113
28	0x3c5094c2	0.012730779
29	0x3cf2c6bf	0.029635785
30	0x3d636b04	0.05552198
31	0x3c9a402e	0.018829431
32	0x3c5155ff	0.012776851
33	0xbd739b36	-0.059474193
34	0xbd5778f0	-0.05260557
35	0xbd33ebb8	-0.04392597
36	0xbc50c995	-0.012743373
37	0xbd6c6d9e	-0.057721727
38	0x3aefe578	0.001830264
39	0x3b186d4f	0.0023258512
40	0xbd1fbcd9	-0.03899846
41	0xbd8c33ea	-0.06845839
42	0x3d3042dd	0.043032516
43	0x3cf368c9	0.029713051
44	0xbd104bf5	-0.03522869
45	0xbc21d360	-0.009877056
46	0x3d0f8ede	0.03504836
47	0x3d0cbf08	0.03436187
48	0xbd4d3762	-0.050101645
49	0x3d77aba4	0.060466424
50	0x3cc9091a	0.024540473
51	0xbd05597d	-0.032556046
52	0xbd831b3a	-0.064016774
53	0xbcf9b8dc	-0.030483656
54	0xbd0a7731	-0.033805076
55	0x3d165b9c	0.03670846
56	0xbc748d9a	-0.014926339
57	0xbd1049c4	-0.0352266
58	0xbd81877b	-0.06324669
59	0x3ce28b89	0.027654426
60	0xbd03191e	-0.032006375
61	0xbcbc1411	-0.022958787
62	0xbc370080	-0.011169553
63	0x3d1c91fc	0.03822516
64	0xbd66f29f	-0.056383725
65	0xbd82c477	-0.06385129
66	0xbd528fec	-0.051406786
67	0xbd2801ba	-0.04101727
68	0x3d20ee25	0.039289612
69	0xbb478237	-0.0030442604
70	0xbd0f763e	-0.035024874
71	0x3c958085	0.01824976
72	0x3cab83f8	0.020936951
73	0xbc81f4b5	-0.015863756
74	0x3c29ea84	0.010370854
75	0xbd842568	-0.06452447
76	0xbc52f955	-0.012876828
77	0xbcbfc44b	-0.02340903
78	0x3cc6ab95	0.024251739
79	0x3cb23bd9	0.021757053
80	0xbd5d03c0	-0.053958654
81	0xba2869d4	-0.0006424461
82	0xbcff0a2e	-0.031132784
83	0x3a8ec73e	0.0010893119
84	0xbd850dcf	-0.064967744
85	0x3d25c160	0.04046762
86	0xb9b2a0a6	-0.00034070498
87	0xbd0a36a6	-0.033743523
88	0x3c3a908e	0.011387004
89	0x3cc75ca3	0.024336165
90	0x3d3ab9c2	0.04558731
91	0x3d73e7b6	0.05954715
92	0xbd1b474c	-0.03790979
93	0x3beec1fb	0.007286308
94	0xbd9c0ffe	-0.07620238
95	0x3cecfa4c	0.028927945
96	0x3cb57369	0.022149758
97	0xbd4468b0	-0.0479514
98	0x3d44aac4	0.048014417
99	0xbd2a246d	-0.041538645
100	0x3d78927d	0.060686577
101	0xbaef0c00	-0.0018237829
102	0x3cc27a60	0.023739994
103	0xbd26477e	-0.040595524
104	0x3d803be1	0.06261421
105	0xbc5015bf	-0.012700497
106	0x3c861afc	0.016370289
107	0x3ccf794e	0.025326397
108	0x3cbff336	0.023431402
109	0x3c8f9b4c	0.017530106
110	0xbc83f9a2	-0.016110245
111	0x3b64e259	0.0034924953
112	0xbd39b264	-0.045336142
113	0x3d408ace	0.047007374
114	0x3cbf36e0	0.023341596
115	0x3cce7aca	0.025205035
116	0xbda28d1a	-0.07937069
117	0xbd50afa2	-0.050948747
118	0xbd4733e6	-0.04863348
119	0xbcfda2d8	-0.030961439
120	0xbc65f514	-0.014035482
121	0x3d6607bd	0.056159724
122	0x3d79f160	0.06102121
123	0x3bb52941	0.0055285995
124	0xbd93991c	-0.07206938
125	0xbc14a475	-0.009072413
126	0xbd3e33ba	-0.04643605
127	0xbd1d9443	-0.03847147
128	0xbd8dfa0c	-0.06932458
129	0xbd19c5b0	-0.037542045
130	0xbd3ebe4c	-0.0465682
131	0x3c03099d	0.007997897
132	0x3be0b7b7	0.006857838
133	0xbd16ce70	-0.036817968
134	0x3d172181	0.036897186
135	0xbc504c59	-0.012713515
136	0xbcad31d8	-0.021141931
137	0xbd1934f5	-0.03740402
138	0x3cf07040	0.0293504
139	0x3cb9afc4	0.02266682
140	0xbcee0ebf	-0.029059766
141	0xbc6314f9	-0.013859981
142	0xbd411e13	-0.04714782
143	0x3d840c3d	0.06447647
144	0x3d3190e0	0.043351054
145	0x3ca08824	0.019596167
146	0xbc9b9eed	-0.01899668
147	0x3d004a96	0.03132113
148	0x3c912d32	0.017721746
149	0xbd3c563e	-0.045980684
150	0xbb9d13d7	-0.004793625
151	0xbcf2dde6	-0.029646825
152	0xbca599fd	-0.020215029
153	0xbbd8b894	-0.0066138003
154	0x3d53e480	0.051731586
155	0xbcb48f8d	-0.022041107
156	0xbcd1dbc6	-0.025617491
157	0xbd32e7bf	-0.04367804
158	0xbcf2d15d	-0.029640848
159	0x3d30349a	0.043018915
160	0x3d2480b3	0.0401618
161	0xbd950667	-0.07276612
162	0x3c843116	0.016136687
163	0xbd917752	-0.07102837
164	0xbd0cba48	-0.03435734
165	0xbbc4b0bf	-0.006002515
166	0xbd3deeb9	-0.04637024
167	0xbd86342d	-0.065529205
168	0xbc75d7d8	-0.015005074
169	0x3c01749f	0.00790134
170	0x3d68bc69	0.056820307
171	0x3d081920	0.033227086
172	0x3c4db847	0.012556142
173	0x3d34e179	0.04416034
174	0xbcf1d4bd	-0.029520387
175	0x3d157956	0.036492668
176	0xbd251017	-0.040298548
177	0xbc997e2d	-0.018736923
178	0xbd675215	-0.056474764
179	0xbc817d96	-0.015806954
180	0xbc846a94	-0.016164102
181	0x3d7d99ee	0.061914377
182	0x3c8cbecb	0.01718082
183	0x3d158313	0.036501955
184	0xbd9542f7	-0.07288163
185	0xbd5e2b80	-0.054240704
186	0x3d2b1ff9	0.04177854
187	0x3cba283f	0.022724269
188	0x3c8f6bf2	0.017507527
189	0x3b0ba690	0.0021308996
190	0xbd324960	-0.043527007
191	0x3d81932d	0.063269
192	0x3d1268f4	0.035744622
193	0x3d4af276	0.049547635
194	0x3cfa639c	0.030565076
195	0xbc03076b	-0.007997374
196	0x3c8fc587	0.017550243
197	0xbd7ef0ec	-0.06224148
198	0xbda6006a	-0.08105548
199	0xbd4bf3c3	-0.049793016
200	0x3d199668	0.037496954
201	0x3cf373b5	0.02971826
202	0x3d42fd72	0.047604986
203	0xbd834c74	-0.06411067
204	0x3c9e3afb	0.019315233
205	0xbc861434	-0.016367055
206	0x3c979758	0.018504784
207	0x3c841724	0.016124316
208	0xbd56060c	-0.05225186
209	0x3d527d02	0.051388748
210	0xbd2626b5	-0.040564258
211	0xbd2f96f2	-0.042868562
212	0xbca25b7c	-0.019819014
213	0x3d67236d	0.05643027
214	0xbd32f088	-0.04368642
215	0xbc71ace9	-0.014750698
216	0xbd2fdb9e	-0.042934053
217	0x3d832ff9	0.064056344
218	0xbd50b9af	-0.05095833
219	0xbd12b2f4	-0.035815194
220	0x3b0ec7a4	0.0021786476
221	0x3d0d5024	0.034500256
222	0x3ce4ba53	0.027920878
223	0xbcc292ea	-0.023751695
224	0x3d418f72	0.04725594
225	0x3d9a7e81	0.0754366
226	0x3d1e5607	0.03865626
227	0x3c401f4b	0.011726211
228	0x3c0956d8	0.008382522
229	0x3d1ec7d8	0.038764805
230	0x3cf42861	0.02980441
231	0x3d341ae1	0.043970946
232	0xbcfb358d	-0.030665183
233	0xbd021cc2	-0.031765707
234	0xbd784e02	-0.06062127
235	0xbc93f7bf	-0.01806247
236	0x3d0f5099	0.034988973
237	0xbaca0934	-0.001541412
238	0xbb89a81a	-0.0042009475
239	0x3d0eb24b	0.034838002
240	0xbb456e8e	-0.003012571
241	0x3b092b28	0.0020930264
242	0xbd4d73ef	-0.05015939
243	0xbd21ed21	-0.039532784
244	0xbcc4cd28	-0.024023607
245	0xbd8417aa	-0.06449826
246	0x3cbfe645	0.02342523
247	0xbd7c7c01	-0.061641697
248	0xbcb5a967	-0.022175504
249	0xbc2ccba8	-0.010546602
250	0xbd0669cc	-0.03281574
251	0xbd0c4cc6	-0.034252904
252	0x3c4ae47d	0.012383577
253	0xbd0c9b85	-0.034328002
254	0xbca54874	-0.02017615
255	0xbca6b008	-0.02034761

linear2.bias f4 [3]
0	0xbc22b13d	-0.009929952
1	0x3d2065e0	0.039159656
2	0xbd00f5b3	-0.031484317
