RL-agent/model/20-10-2022_16-07-32_score-1_model.pth (torch, 16799 bytes, 4 tensors)

linear1.weight f4 [256, 11]
000000 47 c8 07 3d d0 e9 43 bd 94 50 8e 3e 43 38 1f 3e
       0.033149984 -0.047830403 0.2779585 0.15548806
000010 80 1a b4 bc 6e dd 33 be 9b ec 7f 3e fc a9 f2 3d
       -0.021985292 -0.17564937 0.24992602 0.11848828
000020 4c c8 52 be 4c 3b 22 be 65 89 ca bd 1d 9b 82 3e
       -0.2058422 -0.15842932 -0.09889487 0.25508967
000030 bb 38 e7 bd ea 9b 22 3e a2 48 23 be cf 31 35 3e
       -0.11290117 0.15879789 -0.15945676 0.17694782
000040 24 9b 8a be 07 73 2e 3e 18 e4 94 3e ea d6 38 3e
       -0.27071488 0.17036067 0.29080272 0.18050733
000050 18 3d 6b 3e d2 53 1d be 4b 77 22 3e 5c 17 20 3e
       0.22972524 -0.15364006 0.15865819 0.15633911
000060 ca b7 01 3d c0 a9 94 3e c0 95 88 be 4c a9 68 be
       0.031669416 0.2903576 -0.2667675 -0.22720832
000070 ac 32 8d 3e 49 4b 7f 3d b0 2c 84 be 3b d7 e7 ba
       0.27577722 0.062327657 -0.25815344 -0.0017688045
000080 fc 34 20 3e 74 0d 47 3e d1 96 0f 3e ac fb 99 be
       0.15645212 0.19438726 0.14022376 -0.30074823
000090 44 28 20 3d e0 6d 04 bc cd 16 6f 3e 54 9e d3 3d
       0.0391009 -0.008082837 0.23348542 0.10332933
0000a0 33 7b 33 be 10 ad c7 bd 3d f1 7d 3e ca 4a 90 3c
       -0.17527466 -0.09749806 0.24799056 0.017613787
0000b0 b5 37 40 bd c0 43 d7 bd c7 86 89 3e eb b0 54 bd
       -0.046928126 -0.10510969 0.2686064 -0.051926535
0000c0 15 51 c5 bd 41 06 75 be bb 68 2d 3e 24 1d 3b be
       -0.09634606 -0.23928167 0.16934483 -0.18272835
0000d0 2b 19 52 3e 7c 19 40 be b3 7c 95 3e 3a 2a 84 3e
       0.20517413 -0.18759722 0.291967 0.25813466
0000e0 92 d4 70 bd 21 1f bf bd 78 d8 f8 3c 04 6d 2f 3e
       -0.058796473 -0.09332109 0.030376658 0.1713143
0000f0 cc c1 2e bc f3 cc 9b 3e 64 6c 2d be bb b6 9b 3d
       -0.010666322 0.304298 -0.16935879 0.076032124
000100 52 f7 4b 3e 3f f5 07 be 53 bf 4d 3e a3 f3 60 be
       0.19918564 -0.13277148 0.20092516 -0.2196794
000110 4e 8f 36 3e 1e 84 20 3e 3a 2e 82 3e 6b 14 84 3c
       0.17828104 0.15675399 0.25425893 0.016123017
000120 e5 7e 63 be ee 4c d3 bd 86 ac 3c be ae 72 83 3e
       -0.22216375 -0.103174075 -0.18425187 0.2567343
000130 31 79 f6 3d 2d 9f 4b be 74 21 1e 3c 0c a6 39 be
       0.12034834 -0.1988494 0.0096515305 -0.18129748
000140 bb 81 7f 3e f9 dc ff bd 5a a3 e5 3d ba 8c d8 bd
       0.24951832 -0.12493319 0.112127975 -0.105737165
000150 2d ac 5f be 2e ad dc 3d 11 22 6d 3e 56 cb 95 bd
       -0.21843024 0.10775219 0.23157527 -0.07314174
000160 a3 a9 72 3e c3 06 7a 3e 55 3a 16 be 91 01 76 3e
       0.23697524 0.24416642 -0.1467069 0.24024035
000170 d9 c3 a5 bd 32 50 db bd b7 68 dc 3d f3 9e 8d 3e
       -0.080939956 -0.107086554 0.1076216 0.2766033
000180 f0 df 82 be 94 21 8f 3d bb 0d 83 bd 02 b8 46 3e
       -0.25561476 0.069888264 -0.06399103 0.19406131
000190 a3 76 c1 3b 28 49 37 bd c4 e1 80 3e 1c ed 06 3e
       0.005904035 -0.0447475 0.25172246 0.13176388
0001a0 c1 0d 91 bc 3e 58 8c 3e fe 48 90 3e 5c 20 ea 3d
       -0.017706754 0.27411073 0.2818069 0.11431953
0001b0 bc bc 06 bb 1c 3a d1 3d ca c3 48 3e 41 ab 2a be
       -0.0020559272 0.102161616 0.19605938 -0.1666689
0001c0 68 7d 4a be f3 f0 91 be 5f f1 9c bc 7f df b7 3d
       -0.19774401 -0.28504142 -0.019158063 0.08978175
0001d0 a6 e8 3f 3d ea b3 37 3e a7 28 8e 3d be df 0a be
       0.04685273 0.17939726 0.069413476 -0.13561913
0001e0 d3 59 51 bd a0 eb 1b bd 08 8d 51 be 07 8a 81 3e
       -0.051111054 -0.038066506 -0.20463955 0.2530062
0001f0 30 91 5c be 0c 81 b5 3c 33 f7 37 3e bb ed ff bd
       -0.2153976 0.02215626 0.17965393 -0.12496515
000200 df 1a 81 be 7f 47 f9 bd 26 a6 a6 bb a6 4f 1b be
       -0.25215814 -0.1217184 -0.0050857244 -0.15167102
000210 95 5a 13 be 3d 66 8d 3e 5a ab d6 3d 57 33 47 3e
       -0.14390023 0.27617064 0.104819015 0.19453178
000220 0e 12 74 be 5b 91 4c be 48 ca 23 3e ed 1d 56 be
       -0.23835012 -0.19977324 0.15995133 -0.20909853
000230 2d 32 36 3e 2b 6c f2 3c eb 2b 7f be 48 06 0d 3d
       0.17792578 0.029592594 -0.24919097 0.03442982
000240 3b a5 95 3c 33 76 01 be b9 2f 86 3e bc 79 84 3e
       0.018267265 -0.12642746 0.26208284 0.25874126
000250 40 22 7e 3d 28 80 ae bc 5c 9a 66 3e ad 7a 60 3e
       0.062044382 -0.021301344 0.22519821 0.21921797
000260 40 98 5f be 43 37 5b 3e 68 58 8a bd 3c 80 34 be
       -0.21835423 0.214078 -0.067551434 -0.17627043
000270 55 66 62 3e e4 6e 05 be bc 86 90 3e b4 0d 06 3e
       0.22109349 -0.13030583 0.28227794 0.13091165
000280 80 18 cf bb 92 4c 1b be d2 24 66 bd d4 97 6a be
       -0.0063200593 -0.15165928 -0.05618746 -0.2290948
000290 ca 5e 5d bd 40 c0 b8 bc d2 c6 2e 3e 5c 90 0c 3e
       -0.054045476 -0.02255261 0.17068031 0.13726944
0002a0 3f 13 0a 3e d9 ca 82 3e d2 4e 02 be 1f a8 07 be
       0.13483904 0.25545385 -0.1272538 -0.13247727
0002b0 53 bd 56 be d8 96 34 3b 16 b4 28 3d 65 69 3f bc
       -0.20970659 0.002755573 0.04118737 -0.011682843
0002c0 4c 58 09 3b 60 98 0c 3c 41 64 13 3e db d8 30 bd
       0.002095717 0.008581251 0.14393713 -0.04317556
0002d0 27 18 77 3e ca 4b e6 bd 37 88 b1 bd dd fd 89 3e
       0.24130307 -0.11244924 -0.08668559 0.26951495
0002e0 d9 33 9d bd 14 84 33 3d 0e 0a 20 be a1 88 01 3e
       -0.07675905 0.04382713 -0.15628836 0.12649776
0002f0 aa e4 31 bd e8 42 57 be a7 89 87 be 55 56 47 3e
       -0.04343096 -0.21021616 -0.26472208 0.19466527
000300 0f 81 91 be 98 62 7f bd 58 b9 da bd 38 05 14 3e
       -0.28418776 -0.062349886 -0.10679883 0.14455116
000310 72 fb 43 3e ed 4e 6f 3e 56 a6 a0 bd 0e 26 7a be
       0.19138888 0.23369952 -0.07844226 -0.24428579
000320 37 dd 87 3e e6 62 88 bc a5 e8 e5 bd 9b 5f ee bd
       0.2653596 -0.016648721 -0.11226014 -0.11639329
000330 04 4f 2b 3e f0 2b ad bd 27 bd 9d 3e 60 47 c9 bd
       0.16729361 -0.08455646 0.30808374 -0.09828067
000340 c9 28 7d 3e fc d3 15 bd 8c 12 8c be 43 97 05 3e
       0.2472259 -0.036579117 -0.273579 0.13045983
000350 37 dc 49 3e 5d d5 30 be 6b 94 04 be 08 e7 e8 bd
       0.19712912 -0.17268892 -0.12947242 -0.11372191
000360 eb 00 14 3e 81 6d 47 be c7 b0 57 3e 6e c8 01 be
       0.14453475 -0.19475366 0.21063529 -0.12674114
000370 70 c0 94 3c 14 33 c5 bd 12 a9 59 be 18 4c 4e 3d
       0.018158168 -0.09628883 -0.21255901 0.050365537
000380 14 bb 15 3e f1 55 6f be 3c aa c3 3d 4c d5 92 be
       0.14622146 -0.23372628 0.09553954 -0.28678358
000390 2e 44 0f be f0 04 cd bc dc 50 bd bd 5d db fd 3c
       -0.13990852 -0.025026768 -0.09243938 0.03098839
0003a0 f4 0d 0c 3e 0e e7 4f be d4 ec a4 3c 92 99 4b be
       0.13677198 -0.20302984 0.02013246 -0.19882801
0003b0 85 f2 96 be aa 0b 5b 3e f2 f4 ab bd db 15 e5 bc
       -0.29481903 0.21391168 -0.08396329 -0.027964523
0003c0 0f 83 b8 3d 0b ea 0e be 05 04 76 be 57 72 a0 3d
       0.090093724 -0.13956468 -0.24024971 0.078343086
0003d0 6a 1f 16 3e a2 65 e7 3d 94 e4 4e be 67 0d 82 3e
       0.14660421 0.11298682 -0.20204383 0.2540085
0003e0 e8 c1 86 be f3 da 17 3c 64 21 83 be 7f b2 4b 3d
       -0.26319814 0.00926851 -0.25611413 0.049730774
0003f0 24 73 e2 3d b3 41 41 be c5 bd 07 3e 68 6d 8f 3e
       0.110571176 -0.18872719 0.13255985 0.28013158

linear1.bias f4 [256]
000000 de b1 3b be d7 60 40 3d 59 ef 6e be 95 ef 81 bc
       -0.1832957 0.046967354 -0.23333491 -0.015861312
000010 f2 02 82 3e e9 44 86 3e 53 9a 99 3e d7 d8 6a be
       0.25392872 0.2622445 0.30000553 -0.2293428
000020 3a 5d 54 be e8 d9 84 be 3e a4 20 be ac c7 fd 3d
       -0.20738688 -0.259475 -0.15687653 0.123916
000030 d9 17 b2 bc 8e 6d 0e be 1b a7 69 be 68 a0 01 be
       -0.021739887 -0.1390898 -0.22817652 -0.12658846
000040 3c 2a d4 bd f7 bc 42 3e 72 6f 70 3e 9f e5 55 3d
       -0.10359618 0.19017397 0.23480013 0.052220937
000050 7f 60 95 be 8a b2 55 bd 68 60 21 bd 62 8f 2b 3e
       -0.29175183 -0.05217222 -0.03939858 0.16753915
000060 86 99 8f be be 3c 20 bd 32 e9 98 be f4 7a e5 bc
       -0.28046817 -0.03912043 -0.29865414 -0.02801273
000070 96 e5 5a 3e 5d c0 31 be 6d af 43 be 83 77 d8 bc
       0.21376643 -0.17358537 -0.19109888 -0.026424175
000080 bd 5b 80 be f8 0c 5b 3e a9 38 85 3e 09 6b 3c bc
       -0.2506999 0.21391666 0.2601979 -0.011500129
000090 73 3c a6 bc 03 6b 7b 3e af f9 dc bc 93 09 23 be
       -0.020292496 0.2455254 -0.026974527 -0.15921621
0000a0 73 9e b0 3d 91 11 49 be ab 0b dd 3d ef 7b 94 be
       0.08623972 -0.19635607 0.10793241 -0.29000804
0000b0 ba 44 3f be 0b cb c0 bd 40 ed e3 bd b2 77 1d 3d
       -0.18678561 -0.094137274 -0.11129236 0.03844423
0000c0 9b dd e1 bd 28 3d 99 3e 0f f9 95 3d 91 a3 2d ba
       -0.11028596 0.2992947 0.07322895 -0.00066237996
0000d0 6a d1 f9 3d 2b 78 a9 3e 88 a6 5d 3e 44 3b a0 be
       0.12198146 0.33099493 0.21645558 -0.31295216
0000e0 13 c7 e3 3c e8 44 ea bc 6f 8a 32 be 4a 99 90 be
       0.027804887 -0.02859731 -0.1743562 -0.2824195
0000f0 76 53 5c 3e c5 7f c7 bd 34 62 7e bd ce 97 ba bd
       0.21516213 -0.09741167 -0.062105373 -0.09110986
000100 dc 81 50 bd 09 51 4a 3d 14 b6 83 3d a5 89 49 be
       -0.050905094 0.049393687 0.06431213 -0.19681413
000110 bd dd 86 be e9 38 fb 3d 74 60 74 be 2a 6d e3 3d
       -0.26341048 0.12266714 -0.23864919 0.11104806
000120 b7 f3 cb bd da c1 81 be 3c b6 a0 3d 30 86 a9 3d
       -0.09958594 -0.2534321 0.078472584 0.08277547
000130 ae 6f fa 3d 3c 6f 0b 3d 49 4d 89 be ea a2 9d 3d
       0.122283325 0.03404163 -0.26816776 0.07697089
000140 84 ea 2e be 2d fb 0d 3e 1e 94 aa 3d 79 17 f2 bb
       -0.17081648 0.13865347 0.08329032 -0.007388052
000150 94 ca 3b 3e ef 30 5f 3e d5 46 cb bc d2 d6 d9 bc
       0.18338996 0.2179601 -0.024814049 -0.026591692
000160 cd 28 10 be f3 2e 09 be cb 1f e2 3d c4 65 57 3d
       -0.14078064 -0.13396816 0.1104122 0.052587286
000170 18 78 54 be e4 66 1e 3e 56 43 b4 3c 20 70 02 bc
       -0.20748937 0.15468937 0.022004765 -0.007961303
000180 15 1c ef bd 7e d3 0f be 6a ca 9d 3e a2 53 91 be
       -0.11675278 -0.14045522 0.30818492 -0.2838412
000190 84 07 45 3e b9 a5 3e 3e 2d 92 72 3e 4d a4 a5 bd
       0.19241148 0.18617906 0.23688574 -0.080879785
0001a0 0d 82 03 bd c6 97 80 3e 36 11 46 3e a7 2d 89 be
       -0.032106448 0.25115794 0.19342503 -0.26792642
0001b0 42 7b 8b 3e 1d 0c 38 3e 00 0d f7 3d fd f0 3e be
       0.27242476 0.17973371 0.120630264 -0.18646617
0001c0 46 2d 4f 3e b5 2e 97 be bd 67 1a 3e 05 f3 9b 3e
       0.20232114 -0.29527822 0.15078636 0.30458847
0001d0 45 32 8c be 43 b4 95 3e 4f cc 83 be cc 4d 1c bd
       -0.27382103 0.2923909 -0.25741813 -0.03816013
0001e0 02 11 0c 3d 3e 08 d6 bd 34 f1 14 be a8 3e 29 3e
       0.034195907 -0.10450791 -0.14545137 0.16527808
0001f0 59 b9 06 be 9a c4 ce bd d1 c9 08 be a4 ad 9d 3e
       -0.13156642 -0.100960925 -0.13358237 0.3079654
000200 96 26 66 bd 4a ae 92 3e 5c f2 57 be 17 89 6f be
       -0.056189142 0.28648597 -0.21088547 -0.2339214
000210 11 67 14 be fb ea c8 3d 10 01 19 be b0 a3 3e 3e
       -0.14492442 0.09810444 -0.14941812 0.1861713
000220 8e 57 ba 3c 38 87 59 be 64 95 37 3e 83 03 64 3e
       0.022746827 -0.21242988 0.17928082 0.22266965
000230 2e 39 83 3c 37 ec de 3d 08 3a 0d 3e 93 bb 10 3e
       0.016018476 0.10884898 0.13791668 0.14134054
000240 f5 3e 6c be 13 ea c3 3b b0 18 0c 3e 7c fc ec 3d
       -0.23070891 0.0059788316 0.13681293 0.11571595
000250 c7 63 6d be f5 ea 30 3e 10 52 48 3e b5 80 7d be
       -0.23182593 0.17277129 0.19562554 -0.24756129
000260 ef b4 6b be c1 ca 40 be 58 3b 85 be 67 87 27 bd
       -0.2301824 -0.18827344 -0.26021838 -0.040900614
000270 d3 b7 0f be 0a ac 1b be d3 6c 4b 3e 67 65 0b be
       -0.14034967 -0.15202346 0.19865732 -0.136129
000280 b2 f3 34 3d 41 d8 06 be 87 58 79 3c 47 27 03 3d
       0.04417772 -0.13168432 0.0152188605 0.03201988
000290 b9 4a c5 3d f0 13 64 3e 44 21 32 3e 7b f8 6a 3d
       0.09633393 0.2227323 0.17395502 0.057365876
0002a0 31 a6 bd bd 19 bb 23 be 1c cb c1 3d 99 bb 93 3e
       -0.09260214 -0.15989341 0.09462568 0.28854063
0002b0 94 41 90 3d 93 e4 6c 3d 15 d1 34 3e d1 46 3a 3e
       0.07043758 0.057835173 0.17657883 0.18191077
0002c0 cf e6 97 be 3c c8 64 3e 64 34 e6 bd 12 bd 48 b9
       -0.2966828 0.22342008 -0.112404615 -0.0001914392
0002d0 10 d6 40 be 39 8a 82 be 02 48 6a 3e 5b 37 21 bd
       -0.18831658 -0.2549608 0.22879031 -0.03935943
0002e0 38 77 61 3e b5 93 2c 3e 66 a9 b4 3d 20 d3 82 3e
       0.22018135 0.16853221 0.08821373 0.255517
0002f0 be f9 14 bd 26 37 73 be ab 06 5b 3d 19 ab 5c be
       -0.036370985 -0.23751506 0.053473156 -0.21549644
000300 5b 81 09 3e 2e e9 8f bc a4 89 81 be a8 d1 9a be
       0.13428251 -0.017567243 -0.25300324 -0.3023808
000310 c3 81 80 be c0 9d 75 be 2f 9b 44 3e a9 82 4b bc
       -0.25099 -0.23985958 0.19199823 -0.0124212885
000320 0a 18 05 be 1f 84 7f be 4a 6d b6 bd a7 56 8e 3c
       -0.12997451 -0.24952744 -0.08907564 0.017375303
000330 56 7f f2 3c 8d 06 ae 3d 24 27 69 be cd 20 6a be
       0.029601734 0.08497343 -0.22768837 -0.22864075
000340 f8 47 88 3e 83 86 21 3d 06 69 41 3e f7 d5 e7 3d
       0.26617408 0.03943492 0.1888772 0.113201074
000350 9e 02 c3 3d 10 25 60 be 3c 65 34 be 63 43 88 3c
       0.095219836 -0.21889138 -0.17616743 0.016633695
000360 9c 13 90 be 08 31 36 bd 1e 59 3a 3e cc c0 2f 3e
       -0.2813996 -0.044480354 0.18198058 0.1716339
000370 40 7e c8 bb 68 c4 5e 3e 49 b6 50 be 3d 0b 6c 3e
       -0.006118566 0.2175461 -0.20382036 0.23051162
000380 42 c4 34 be 64 62 1f bc 69 e8 6f be ee 91 e7 3d
       -0.17652991 -0.009728048 -0.23428501 0.11307131
000390 9e d1 92 3c ca ec 1b 3e 57 c9 08 3e 81 0a cd bd
       0.017922219 0.15227047 0.13358055 -0.10011769
0003a0 d8 c6 a9 b9 c1 91 b9 3c 81 2e a2 3e a4 43 dd 3d
       -0.00032382342 0.022652509 0.31676105 0.10803917
0003b0 62 45 36 be 7d dc 60 be 7e 9d fc 3b ca 26 23 bd
       -0.17799905 -0.2195911 0.007709204 -0.039831914
0003c0 a0 81 13 3e d3 d8 4c be df e2 6f 3e 67 72 91 be
       0.14404917 -0.20004587 0.23426388 -0.28407595
0003d0 ba bc 8e bd f2 51 e8 3d f6 32 17 3e ec f7 92 bd
       -0.069695905 0.11343755 0.14765534 -0.071761936
0003e0 f0 18 16 be 9f d1 e2 3d 15 78 2c 3e 8b f7 82 be
       -0.1465795 0.11075138 0.16842683 -0.25579485
0003f0 a9 b6 08 3e e1 78 a5 be 23 ec 04 3e 5f 4b f1 3d
       0.1335093 -0.32318786 0.12980704 0.11781954

linear2.weight f4 [3, 256]
000000 45 4d 84 bd c5 be 8c bd fc 5a 21 bd 94 c2 89 3c
       -0.064600505 -0.06872324 -0.03939341 0.016816415
000010 74 84 36 bd 54 e9 01 3c b9 38 bf bd 0c b5 f6 3c
       -0.04455991 0.007929165 -0.09336991 0.030115627
000020 24 cd 76 bc 4d bc 8c bd 0e 9d 7b bc 91 49 64 ba
       -0.015063558 -0.06871853 -0.015357269 -0.0008708472
000030 63 64 b7 bc ec f7 3a bb b4 9a 81 3d 31 b7 da bc
       -0.022386735 -0.002852912 0.063283354 -0.02669868
000040 29 05 c5 3c 99 a7 42 bd 1b 8d 01 3d cc 4c 6b bd
       0.024050312 -0.047523115 0.03162871 -0.057446286
000050 e4 50 0a 3d 3f db 6d bd 85 ca 33 3d 41 d3 44 3c
       0.03376855 -0.058070417 0.04389431 0.0120132575
000060 e0 aa d7 bc 5d 2a 72 bd b0 ca 41 3d 91 43 23 3d
       -0.026326597 -0.059122432 0.04731244 0.03985936
000070 24 3d d7 3c a7 9e 27 3d 36 b3 09 bb 33 61 27 bd
       0.026274271 0.040922787 -0.002101136 -0.04086418
000080 41 7c b5 3c af 46 28 3b eb 48 60 bd 44 91 93 bd
       0.022153975 0.0025676896 -0.05475704 -0.072054416
000090 da f1 01 bd 56 5c 08 bd 32 c9 ce bc cc ec f4 3b
       -0.03172479 -0.033291183 -0.025242422 0.0074745174
0000a0 b4 dd 43 bc 32 a5 7e bd 9b 36 8e bd 90 3f 14 3b
       -0.011954714 -0.06216926 -0.06944009 0.0022620894
0000b0 69 ca 6b bd fb 7d ab bb e0 08 21 bd 21 f5 30 bd
       -0.05756608 -0.005233524 -0.039315104 -0.043202523
0000c0 90 f7 a0 bd 95 37 93 3c f8 97 f6 bc 73 d4 c5 bb
       -0.07859719 0.01797084 -0.030101761 -0.006037289
0000d0 54 7e 09 bd f3 18 31 bd d1 07 d9 3c 93 e2 f3 bc
       -0.03356774 -0.043236684 0.026492985 -0.029771125
0000e0 38 8e a3 bb d4 e6 e1 3b 20 47 6a bc 98 e9 38 3d
       -0.004991319 0.006893972 -0.014299184 0.045144647
0000f0 09 e6 b9 bc 0b 0a 07 bd 8c 98 9b bd 7b 00 a6 bb
       -0.022692697 -0.032968562 -0.075974554 -0.0050659752
000100 8d 63 0e 3d bd 54 3c 3b da 13 e9 bc 1f 6a 79 3c
       0.034762908 0.0028737031 -0.028451849 0.015223055
000110 b9 33 b6 3b 42 d9 b8 bb 71 69 02 bc 68 39 15 bc
       0.005560365 -0.0056411335 -0.0079597095 -0.009107925
000120 33 e5 95 3d ec 6d 10 bd d7 32 5a 3b e2 5d 80 bd
       0.07319107 -0.03526108 0.0033294463 -0.06267907
000130 90 cf 9e bd 90 74 a7 bd f5 94 e1 bc 67 b2 d7 3c
       -0.07754433 -0.081765294 -0.027536849 0.026330186
000140 30 e0 40 3d 0e 6a 9a 3c 3b 12 fb 3c a5 9c 73 bd
       0.0470888 0.018849399 0.030648341 -0.05947556
000150 34 19 29 bc 8f 95 80 bd 6d 8f ba bc 4a 11 7d 3d
       -0.01032095 -0.06278526 -0.022773469 0.061784066
000160 2c eb 9f 3c ab 82 ba bb d4 4a 66 bd 93 51 06 bd
       0.019521318 -0.0056918464 -0.056223705 -0.03279264
000170 13 44 de bc f0 3f 29 bc 06 fc 35 bd 52 ce f1 bc
       -0.02713207 -0.010330185 -0.0444298 -0.029517327
000180 28 b7 a5 bd 59 fe f2 bc f0 11 48 bd 34 b2 12 3d
       -0.08091575 -0.029662298 -0.04884523 0.03581448
000190 e3 d6 01 bd 37 4d 5f bc 3e 99 bb bd f2 3a 26 bd
       -0.031699073 -0.013629249 -0.09160088 -0.04058356
0001a0 e5 24 94 bc a1 ec 28 bd c3 f6 89 bb e7 6b a5 bd
       -0.018083999 -0.041241292 -0.0042103245 -0.08077221
0001b0 a3 7b 36 bd a9 50 3c bd be 0e f6 bc ae d9 6b bd
       -0.044551503 -0.04597536 -0.030036326 -0.057580642
0001c0 85 45 aa 3c b4 04 52 bd f4 b7 a7 bd 3f 7a 86 bd
       0.020785103 -0.051274016 -0.08189383 -0.06566285
0001d0 b3 c5 f5 3c c7 36 de bc ce 29 21 3d 62 07 95 bb
       0.030001497 -0.02712573 0.03934651 -0.0045479992
0001e0 b6 07 9a bd 34 da fe bc d4 7d 81 bc 30 b6 7f bd
       -0.07521002 -0.031109907 -0.01580707 -0.062429607
0001f0 61 6d f4 bc e8 90 62 bc 76 14 38 bd e5 19 4f bd
       -0.029837312 -0.013828494 -0.044941388 -0.050561804
000200 7c e5 18 3d 93 e7 75 bd d2 36 d5 3c 18 dc f2 3c
       0.03732823 -0.0600353 0.026027117 0.029645965
000210 ce fb 2f 3d 69 c2 18 bd 53 f6 1c 3d 59 86 21 bc
       0.04296475 -0.03729478 0.03832085 -0.009858691
000220 bc 3d 43 3c ee 90 75 bd ba ef 7d 3c cd 6f cf 3c
       0.011916574 -0.05995267 0.01549905 0.025321865
000230 3a 6b a0 bd 7d 02 6d bd 0e 52 d0 3c 7e 11 6d bd
       -0.07832952 -0.0578637 0.025429752 -0.05787801
000240 50 57 90 3c ff 1f 85 bc e9 68 4f 3c 71 33 7a 3c
       0.017619759 -0.016250608 0.01265929 0.015271054
000250 2b 1b 32 bd 8f ee 4d 3d 3c 38 59 bd 48 bc 96 39
       -0.04348294 0.050276335 -0.053032145 0.0002875051
000260 4c 77 6e 3c cd 2c 8d bd 18 97 ea ba 65 fc fd 3b
       0.01455481 -0.06893311 -0.0017897813 0.007751035
000270 a6 e5 88 bb 7c 90 a2 bd b2 35 5f 3d 6d a6 b3 bc
       -0.004177767 -0.079377145 0.054494567 -0.021929944
000280 ee f0 a6 3c e7 5a 69 bd 3e 27 93 3d 48 fc 06 bd
       0.020378556 -0.056971457 0.07185219 -0.032955438
000290 f8 51 87 bd ce 6f 79 bd 25 f2 b2 3c b4 1c 44 bc
       -0.06607431 -0.06089764 0.02184398 -0.011969734
0002a0 75 e0 87 3a d8 49 ed 3c 5a 02 50 bd 31 e2 a9 bd
       0.0010366576 0.028965876 -0.050783493 -0.08295096
0002b0 87 da a4 3b e6 26 1e bd bd cb 59 bc 3e 61 94 bc
       0.0050309333 -0.038611315 -0.013293204 -0.018112775
0002c0 c7 c6 2b bd 95 13 4c bd c6 c7 91 bc af e6 de bc
       -0.041937616 -0.049823362 -0.017795455 -0.027209608
0002d0 db c6 b3 bb bf af 6b bd 5e d5 47 bd ed 2b 5b bc
       -0.005486352 -0.05754065 -0.048787467 -0.013377172
0002e0 67 4e 79 bc 8f 68 15 bd 7f f1 9f 3c ca bf fd bc
       -0.0152164465 -0.036476668 0.019524334 -0.030975241
0002f0 c0 29 17 3c b8 5e 8a bc 82 3c d1 bd 91 e0 21 3b
       0.009226263 -0.016890869 -0.10216619 0.0024700502
000300 c0 97 81 bc 57 fa 0c 3c e3 82 95 bc 0c c6 da bb
       -0.01581943 0.008604608 -0.018250888 -0.006676441
000310 68 3f 56 bd 1f c0 8e 3c 1e 36 a9 bd ac aa f0 bc
       -0.052306563 0.017425595 -0.08262275 -0.029378258
000320 3d 49 95 bd ae 11 50 3d 70 71 71 bd c9 d3 3d bd
       -0.0728936 0.05079811 -0.058946073 -0.046344552
000330 fb 7d 69 3c 20 f6 a1 bc f0 5f 65 bd 00 29 ac b9
       0.0142512275 -0.019770682 -0.055999696 -0.00032836944
000340 8d 9e 8a bd 61 a1 af bc a7 5a 8d bd 17 f2 8b ba
       -0.067685224 -0.021439256 -0.06902056 -0.0010677007
000350 f6 78 7d bd c4 3c a1 bc f9 ad de 3b 47 52 9f bd
       -0.061882935 -0.019682296 0.0067956415 -0.07779365
000360 b1 13 20 3c 82 20 22 3d 88 f1 b4 bc c1 9e 6e bd
       0.00977032 0.039581783 -0.022087827 -0.05825687
000370 a8 f6 b9 3c 09 7a 0a bd 75 82 88 bb 7a b4 90 bd
       0.022700623 -0.033807788 -0.0041659423 -0.07065673
000380 22 70 13 bc 37 ee ff 3b 27 ea 6c bd 75 01 c7 3c
       -0.0089989025 0.00781038 -0.057840493 0.024292687
000390 21 5a 99 3c be 6b 3f bb f2 a2 b9 bc 87 4f 58 bd
       0.018719735 -0.0029208506 -0.022660706 -0.05281022
0003a0 67 c3 25 3d a8 b4 0c 3d 36 44 98 bc 51 eb a9 3c
       0.040469553 0.034351975 -0.018587213 0.02074209
0003b0 6f f0 12 3c c6 86 78 bd 14 85 db 3b 7d 5a 93 3b
       0.008968457 -0.060675405 0.0066992138 0.004496871
0003c0 54 ec 0c bd f4 9d 1e 3d af 3d cf bd c2 c5 19 3d
       -0.034405068 0.038724855 -0.10119187 0.037542112
0003d0 93 b3 98 bd 0d b2 c6 bb 03 08 a6 bb 56 77 99 3c
       -0.07456126 -0.006063706 -0.005066873 0.018733662
0003e0 4c eb ea 3c d8 6b b4 3c f2 6e 02 bd a9 b6 8e 3c
       0.028676651 0.02202408 -0.031844087 0.017421084
0003f0 2f 77 17 bd ca de ff 3c ab 01 c5 bc 2f ee c8 bd
       -0.036978897 0.031234164 -0.024048647 -0.09811055

linear2.bias f4 [3]
000000 3c 09 53 bd 69 be ad bd 21 d4 86 bd
       -0.05152248 -0.084835835 -0.06583429
